model_weight/1681630337.020757.pth (torch, 3935 bytes, 4 tensors)

gc1.weight f4 [3, 16]
00000000: 10fd 623f 7fde 943f 5046 893f 5fab 583f
00000010: fe11 573f d4e4 4b3f a8b8 253f 8e53 8f3f
00000020: 9e8b 8e3f 6959 943f 94ca 7a3f f094 6d3f
00000030: 6b3b 8a3f 0876 913f 7a5b 823f 9e0b 983f
00000040: 0270 7d3f 1e00 8a3f 5b8b 8c3f 257f 883f
00000050: c76e 813f d58c 983f df5f 733f 964e 753f
00000060: a903 873f 2483 6b3f 509b 613f a477 4f3f
00000070: 0340 6f3f 53d6 7a3f b65c 563f 3453 953f
00000080: 5942 7c3f e765 523f 8c1a 883f 358c 503f
00000090: 671a 8d3f 8e4a 413f dadd 1b3f 0eb5 3b3f
000000a0: 4fd6 813f f483 533f af21 8f3f d5d3 763f
000000b0: bc6b 983f ef4b 7c3f 35a6 483f 4f65 8f3f
0.8866739 1.16304 1.0724583 0.8463649 0.8401183 0.7964604 0.6473489 1.1197374
1.1136358 1.1589786 0.9796536 0.92805386 1.0799383 1.1364145 1.0184166 1.1878545
0.98999035 1.0781286 1.0980028 1.0663801 1.0111932 1.1917979 0.9506816 0.9582304
1.0547992 0.9199698 0.88127613 0.8104193 0.9345705 0.9798328 0.83735216 1.1666017
0.9853874 0.8218674 1.0633101 0.8146394 1.1023682 0.75504386 0.60885394 0.7332314
1.0143527 0.8262322 1.1182154 0.9641698 1.1907878 0.98553365 0.7837861 1.1202792

gc1.bias f4 [16]
00000000: 2597 823f 5809 993f ecf6 7c3f d108 433f
00000010: 4567 873f 3ab7 713f 9e45 823f 1de1 3b3f
00000020: 1e75 933f dabb 9e3f ed62 883f 2187 793f
00000030: 319e 933f fd4e 763f c8b5 7c3f 6f33 8c3f
1.0202376 1.1955976 0.9881427 0.7618533 1.057839 0.94420207 1.0177495 0.7339037
1.1520116 1.2401078 1.065519 0.97471815 1.1532651 0.96214277 0.98714876 1.0953196

gc2.weight f4 [16, 32]
00000000: 6017 91bf 6e96 50bf 8916 63bf 696f 93bf
00000010: 2a67 8abf b8e7 5ebf 19b6 62bf 832e 89bf
00000020: e658 66bf ce3c 8dbf 1dd5 89bf a2c1 5abf
00000030: 9292 82bf b425 64bf e0f2 87bf a30a 6dbf
00000040: 0695 81bf 0361 89bf 7d1b 87bf f43b 5bbf
00000050: f8c7 79bf b47c 6abf 7022 8fbf 44b8 84bf
00000060: 4fad 6abf 0651 54bf f0bc 59bf fce7 6cbf
00000070: b149 77bf de79 77bf 8894 8bbf 29cd 92bf
00000080: fa43 50bf 451d 80bf cf55 91bf fdd5 8cbf
00000090: fdfd 83bf 8089 91bf dc8d 91bf a246 50bf
000000a0: 3756 7fbf 57ab 7abf 4814 77bf 6504 7ebf
000000b0: e4b0 85bf eb7c 5bbf 3f15 73bf 7feb 87bf
000000c0: aaed 8dbf 720f 81bf 6a53 8abf 35de 8fbf
000000d0: 7305 81bf c95c 5dbf 1043 81bf c745 58bf
000000e0: d53c 56bf 822f 85bf 9ffd 92bf b89e 4dbf
000000f0: ff05 68bf 0917 78bf cd27 7cbf 7a37 87bf
00000100: 066b 72bf c3a1 7dbf 2d3c 93bf cd48 84bf
00000110: 5f7c 69bf 2faf 62bf 0981 87bf f854 93bf
00000120: 8a0b 5dbf d95a 58bf 9815 92bf 1466 8fbf
00000130: 8f81 68bf bd36 5fbf 30a5 6fbf dd1f 51bf
00000140: 719b 87bf 1ff4 5cbf 1a5f 52bf e4e8 73bf
00000150: 9ddf 90bf 309b 85bf 0149 58bf c55a 7abf
00000160: fe80 59bf 1bbd 7dbf 2a84 8abf a69c 4ebf
00000170: 0421 6dbf 3fc9 81bf 6381 93bf 538b 68bf
00000180: a580 84bf 2a87 90bf 5a48 89bf 9d1c 7bbf
00000190: cc8d 7cbf 550b 60bf 5d68 64bf 36fc 4ebf
000001a0: 5c8a 8dbf 8976 86bf 3906 67bf e639 71bf
000001b0: cb4a 87bf 7edd 92bf 6c5b 89bf be74 7bbf
000001c0: 0e3a 5cbf b49b 8ebf 81ec 91bf 6f46 5cbf
000001d0: 07cb 89bf f49a 86bf cb2d 69bf 97f2 86bf
000001e0: c1e7 70bf 46a3 7cbf 37d0 55bf 4eb1 56bf
000001f0: c91e 63bf dfcd 8fbf 1f2c 80bf 70b6 80bf
00000200: 7727 5abf 4580 5dbf 8a88 63bf 599b 6dbf
00000210: 68ce 83bf 57ff 87bf 04ba 8fbf 7cc6 4ebf
00000220: 3beb 92bf b531 93bf c0a4 87bf cbf1 88bf
00000230: 7f50 84bf 1cc1 62bf 1dd4 86bf bc51 6bbf
00000240: 6c79 7fbf 9395 90bf fdb6 67bf 9cfc 7dbf
00000250: 32b6 86bf ca52 6abf f5b3 4fbf 79d9 82bf
00000260: 2e60 62bf f076 78bf e20a 72bf 3e2d 87bf
00000270: f625 8dbf 3ece 5cbf aacf 7dbf 9a1e 7abf
00000280: 9cfd 8ebf 28b2 61bf 0801 57bf 90dd 4dbf
00000290: 7094 57bf 1fbd 8abf 7307 71bf d4e8 7cbf
000002a0: 7104 6bbf 2e6f 8dbf 0666 6bbf 6352 93bf
000002b0: 8ca5 6abf eb03 7abf 9113 8bbf d8ef 7fbf
000002c0: ba3d 89bf 143d 53bf 6934 73bf 05ea 90bf
000002d0: ae60 88bf 2a2f 77bf 97e4 80bf cc91 6ebf
000002e0: d3ad 52bf 0b63 7dbf 5af2 74bf d0aa 89bf
000002f0: 08b0 89bf 7323 6abf 6bfe 5abf c544 8abf
00000300: a6b6 83bf 068a 63bf aa8d 6ebf b434 7fbf
00000310: ab77 7dbf cb3b 73bf 012d 5cbf 6efc 50bf
00000320: ae36 8fbf cea3 6fbf a429 80bf 2beb 75bf
00000330: 6162 58bf 730f 84bf 329b 82bf cb2a 5bbf
00000340: 3931 5bbf aaac 62bf d09a 5fbf bc8a 8dbf
00000350: d1e3 63bf 3db2 6cbf b444 74bf 104d 8cbf
00000360: 6daf 90bf 3b0b 55bf a9de 73bf 2acb 76bf
00000370: 9619 6bbf 1a48 4fbf 7108 59bf ef80 84bf
00000380: cd22 6dbf 97cf 82bf 9b73 6bbf d550 60bf
00000390: 103b 85bf 1c48 59bf 606e 86bf 8b46 85bf
000003a0: 3132 76bf c835 7cbf b2dd 88bf c953 51bf
000003b0: 5670 73bf a140 56bf aa2a 6cbf 7473 92bf
000003c0: 05f6 72bf f731 76bf febc 63bf bf36 56bf
000003d0: cee8 87bf 37f0 6fbf 1665 84bf 072e 4dbf
000003e0: 71c9 59bf e6a4 75bf 19ee 85bf 3fef 4ebf
000003f0: 470d 6cbf 5290 93bf aac2 63bf 0e5a 80bf
-1.1335258 -0.8147954 -0.8870626 -1.1518375 -1.0812733 -0.87072325 -0.8855911 -1.0717319
-0.899794 -1.1034181 -1.0768162 -0.8545171 -1.020098 -0.8912003 -1.0620995 -0.92594355
-1.0123603 -1.0732731 -1.0555264 -0.85638356 -0.97570753 -0.9159653 -1.1182384 -1.0368733
-0.916707 -0.8293613 -0.8505392 -0.9254148 -0.9659682 -0.9667033 -1.0904703 -1.146886
-0.81353724 -1.0008932 -1.1354312 -1.1002804 -1.0311886 -1.1370087 -1.1371417 -0.8135778
-0.9974093 -0.97917694 -0.9651532 -0.99225456 -1.0444608 -0.85737485 -0.94954294 -1.0618743
-1.1088154 -1.0082839 -1.0806706 -1.1239687 -1.0079788 -0.86469704 -1.0098591 -0.8448147
-0.8368657 -1.0405123 -1.1483649 -0.8032031 -0.9063415 -0.9691015 -0.9849823 -1.0563805
-0.94694555 -0.99074954 -1.1502739 -1.0334717 -0.912054 -0.8854856 -1.0586253 -1.1510305
-0.8634573 -0.8451362 -1.141284 -1.1203027 -0.9082269 -0.871929 -0.9361143 -0.81689245
-1.0594312 -0.8631 -0.82176363 -0.9527724 -1.1318241 -1.0437984 -0.84486395 -0.97794753
-0.8496245 -0.9911668 -1.0821583 -0.80707777 -0.926285 -1.013954 -1.1523861 -0.9083759
-1.0351759 -1.1291249 -1.0725205 -0.98090535 -0.98653865 -0.8751729 -0.89221746 -0.80853593
-1.1057849 -1.0504924 -0.9024387 -0.9422897 -1.05697 -1.1473844 -1.0731025 -0.9822501
-0.86026084 -1.1141267 -1.14003 -0.86044973 -1.0765084 -1.0516038 -0.910855 -1.0542783
-0.9410363 -0.98686635 -0.83520836 -0.83864295 -0.8871885 -1.1234702 -1.0013465 -1.0055676
-0.8521647 -0.8652385 -0.8888022 -0.92815167 -1.0297365 -1.0624799 -1.1228642 -0.80771613
-1.1478037 -1.1499544 -1.0597153 -1.0698789 -1.0337065 -0.8857591 -1.0533482 -0.9192159
-0.9979465 -1.1295646 -0.9051359 -0.99213576 -1.0524352 -0.91532576 -0.8113397 -1.0222617
-0.8842801 -0.97056484 -0.94547856 -1.0560682 -1.102721 -0.862522 -0.99144995 -0.97702944
-1.1171145 -0.8816247 -0.8398595 -0.804162 -0.8421087 -1.0838965 -0.9415199 -0.9879277
-0.9180365 -1.1049554 -0.9195255 -1.1509517 -0.91658854 -0.9766223 -1.0865346 -0.9997535
-1.0721962 -0.8251507 -0.95001847 -1.1321417 -1.0654504 -0.9655634 -1.006976 -0.9319122
-0.82296485 -0.9897925 -0.956823 -1.0755253 -1.0756845 -0.9146034 -0.8554446 -1.0802237
-1.0290115 -0.8888248 -0.9318491 -0.99689794 -0.99010724 -0.9501311 -0.8600617 -0.8163518
-1.1188562 -0.9360932 -1.0012708 -0.9606196 -0.84525114 -1.0317215 -1.0203612 -0.8561217
-0.8562198 -0.88544714 -0.873456 -1.1057963 -0.89019495 -0.9245947 -0.9541733 -1.0961018
-1.1303536 -0.8322026 -0.9526163 -0.96403754 -0.91835916 -0.80969393 -0.84778506 -1.0351847
-0.92631227 -1.0219601 -0.91973275 -0.8762334 -1.040865 -0.84875655 -1.0502434 -1.0412153
-0.96170336 -0.98519564 -1.0692656 -0.8176847 -0.95093286 -0.83692366 -0.922526 -1.1441483
-0.94906646 -0.9616999 -0.88960254 -0.83677286 -1.0617921 -0.93725914 -1.0343349 -0.8014836
-0.85073 -0.9595474 -1.0463287 -0.8083381 -0.9220776 -1.1528418 -0.8896891 -1.0027483

gc2.bias f4 [32]
00000000: e2b1 76bf 21fd 85bf 5c28 5abf ad31 91bf
00000010: d3ea 4ebf f05a 87bf c136 54bf c1b9 88bf
00000020: 28b9 84bf d945 6fbf c5b9 5dbf a1d2 82bf
00000030: 1260 8cbf a020 89bf 8200 59bf 9d3f 8bbf
00000040: 5f2f 8abf b5c6 8fbf 8e00 57bf 1932 8dbf
00000050: 24b0 76bf 94fe 77bf c780 93bf 6138 82bf
00000060: 6e65 5fbf 2dfd 8dbf 7e9c 80bf 63f3 8abf
00000070: 189d 7ebf 1ade 61bf 57ab 7ebf 4313 7bbf
-0.9636518 -1.0467874 -0.85217834 -1.1343285 -0.80827063 -1.0574627 -0.8289605 -1.0681688
-1.0369005 -0.93465954 -0.86611587 -1.0220529 -1.0966818 -1.0713081 -0.847664 -1.0878788
-1.0795707 -1.1232516 -0.8398522 -1.1030914 -0.9636252 -0.9687283 -1.1523675 -1.0173455
-0.87264144 -1.1092888 -1.0047758 -1.0855526 -0.99458456 -0.88229525 -0.99480194 -0.98076266
