model_weight/1681627377.3797078.pth (torch, 3871 bytes, 4 tensors)

gc1.weight f4 [3, 16]
00000000: ea2d ae3f 0f86 973f 0815 9a3f f2cb b23f
00000010: 5318 ad3f 64c8 b33f 744b b63f 59dd cd3f
00000020: ddca c03f 937b 913f 8419 b73f 49cd a43f
00000030: 2117 be3f 367a c13f 8bac 543f 3d51 923f
00000040: cca3 a73f 8a93 be3f c559 b83f d829 ae3f
00000050: 760f aa3f ec7b a93f f1b3 9c3f c902 d23f
00000060: 1fbf 8e3f 2b46 c83f 93ca a33f 6a82 9f3f
00000070: d866 c63f e539 a83f f265 a43f 8b83 ad3f
00000080: e7d5 ac3f cc4b cf3f 4254 963f 98eb aa3f
00000090: c597 9c3f f53d a23f 143f bd3f ed8a c13f
000000a0: 8f16 b63f 8358 b93f e63d cf3f 7b83 c03f
000000b0: 2b47 bd3f 430c c73f 9713 633f 9077 b73f
1.3607762 1.1837786 1.2037668 1.3968489 1.3523048 1.4045529 1.4241776 1.6083175
1.5061909 1.1365837 1.4304662 1.2875148 1.4850808 1.5115421 0.8307578 1.1431042
1.3096862 1.4888775 1.4402395 1.360652 1.3285968 1.3240943 1.2242414 1.64071
1.1152076 1.5646414 1.2796196 1.2461674 1.5500135 1.3142668 1.2843611 1.3555769
1.3502778 1.6195006 1.1744463 1.3353148 1.2233816 1.2675158 1.4784875 1.5120522
1.4225634 1.4480137 1.6190765 1.5040125 1.4787344 1.5550617 0.88701767 1.4333363

gc1.bias f4 [16]
00000000: c0eb ae3f 9224 b93f 799e 943f b1e4 ae3f
00000010: 4c40 a23f 9ca4 b13f 0492 9f3f 5b96 cc3f
00000020: 45d4 933f 453f ba3f b154 c83f aa26 c03f
00000030: 53e6 b13f b615 973f 49b5 7c3f 411c b53f
1.3665695 1.4464285 1.1610862 1.3663541 1.2675872 1.387836 1.2466435 1.5983385
1.1549155 1.4550558 1.5650846 1.5011799 1.3898414 1.1803501 0.9871412 1.4149247

gc2.weight f4 [16, 32]
00000000: dac9 c6bf 86f6 bbbf a483 bbbf 2c6c a6bf
00000010: ccac a2bf 20e4 c4bf 0161 9fbf b8d3 9ebf
00000020: 0698 afbf 78ef a8bf 0fb9 a1bf 4460 a4bf
00000030: 93a5 c2bf 304e b1bf 8cae adbf 8d73 a9bf
00000040: a873 c4bf 3f4a c4bf 1948 adbf 5ccf a3bf
00000050: 9e3d 9fbf 43e1 aabf ef62 a1bf 6a9c b5bf
00000060: 8357 c1bf e66e bbbf 2ae0 aebf 44a9 c0bf
00000070: 2028 a7bf 0e56 c6bf cf11 b7bf 3365 acbf
00000080: b8f6 b5bf 47ac aabf 4109 aebf b65d bfbf
00000090: 3c1a b0bf f280 a5bf c937 c0bf 8c54 bdbf
000000a0: ccf4 b3bf f1c2 c2bf 10b4 c3bf a62b c0bf
000000b0: 3461 babf d43e c2bf 71f1 c6bf 364e b5bf
000000c0: 1b7b bcbf 5148 c4bf ad75 aabf b90c a9bf
000000d0: 99ae bbbf 1efa c4bf d6e9 b0bf b280 b0bf
000000e0: eaca b1bf dc79 a9bf 4c58 b7bf 80a1 c0bf
000000f0: cad1 a9bf f31f acbf f6b2 c3bf 87af a7bf
00000100: 2a51 b6bf 4214 afbf 1284 a3bf 836c 9cbf
00000110: 0f11 abbf a754 b6bf c43f a5bf c426 b5bf
00000120: 2632 c2bf b9bc c2bf 40dd c1bf b1e2 9fbf
00000130: 37ef c1bf cafc a7bf 5730 9dbf ee48 babf
00000140: 214f a4bf 0dde a5bf fc35 c0bf 932c b1bf
00000150: a59e b6bf 2f8a c6bf 5df6 bdbf 8b6a a7bf
00000160: f04a b4bf be78 9bbf 4206 a1bf 2196 bfbf
00000170: d1f0 afbf d2d4 b1bf e1c3 b9bf 25e1 a7bf
00000180: fa64 a3bf 9fe2 c3bf 29bd c0bf ace1 c5bf
00000190: 7f6d bfbf cef5 aebf 6228 bebf bd53 abbf
000001a0: c92a bbbf 46d0 adbf 6176 adbf 12dc bfbf
000001b0: ebd5 adbf c89e a2bf 240c 9cbf a334 bdbf
000001c0: 49d9 b8bf 4500 9dbf d6dd 9bbf e38a bebf
000001d0: 2cd4 b3bf 28f8 babf d7dd aabf 5883 c5bf
000001e0: 618b bbbf 5bab a2bf d815 a8bf 315e a3bf
000001f0: c436 aabf f73e c4bf ef12 9fbf 625f b1bf
00000200: a501 c2bf f2c1 b4bf bed7 bfbf 634e c1bf
00000210: b79a abbf 2ac5 b1bf 579b bdbf 2b41 a6bf
00000220: 1ba3 aebf 2dcb a3bf 31ca adbf ab58 a2bf
00000230: 00f3 b4bf dd20 adbf de85 aebf 542b a2bf
00000240: 5697 a7bf 7b36 c0bf 665c b2bf bddd abbf
00000250: 91d6 a0bf 80c5 b3bf b459 afbf 29e1 adbf
00000260: 6e17 bdbf 90d7 c3bf d9ef c1bf 1f96 c1bf
00000270: 274c b9bf a549 b0bf 6e15 b6bf ad58 c8bf
00000280: d440 a0bf 190e b8bf 3b46 c3bf 11e0 9bbf
00000290: 0c11 b1bf 5d6e b4bf ed42 a2bf c65e b8bf
000002a0: d7ed abbf 5d1d afbf ef75 a5bf 7912 9dbf
000002b0: 44c2 b0bf a941 b0bf ea9c babf ff48 c7bf
000002c0: 4731 acbf 2847 bfbf ef8c a2bf 06be a0bf
000002d0: 57b2 a2bf 6127 b2bf e617 c2bf 8c78 adbf
000002e0: ab8b c4bf d225 9ebf fb1d a4bf 4c6d a0bf
000002f0: 4335 a1bf 1e95 c3bf 3f1f afbf 9058 a9bf
00000300: 6a18 a9bf 64f5 c0bf 8a87 bbbf 11ee aabf
00000310: 49f8 babf 63a9 b0bf 324e afbf ffeb abbf
00000320: df32 acbf 609b b1bf b19a c0bf 4d34 b0bf
00000330: 2e49 b0bf ce43 c8bf 359b c5bf 6971 c7bf
00000340: bef9 aebf 6f7c 9dbf 48ae a8bf e61f afbf
00000350: 5c19 a9bf d9cf b7bf 1595 c1bf 3f3b c3bf
00000360: 39ad aebf f451 b2bf 0dd8 b9bf e5bb bfbf
00000370: 52cd b4bf 4354 c6bf 1038 bbbf 5c40 b9bf
00000380: 2d1c babf 56e0 a3bf 936e abbf a7bc bebf
00000390: 4b10 c2bf bc1a bfbf e03b a6bf 8f90 c3bf
000003a0: b57b 9ebf 9755 c8bf d847 c0bf 6ee0 a5bf
000003b0: 060f aebf c003 9fbf d226 a7bf 2a5b a0bf
000003c0: d459 b4bf fba3 b2bf 5ad3 b6bf 975c b1bf
000003d0: 5130 c8bf 7f22 c7bf d3fc 9bbf fb8c a9bf
000003e0: b3ee a4bf 3c54 aebf 70a8 b3bf 9859 b0bf
000003f0: 0f57 b1bf d2dd a5bf 8072 b3bf 1280 b4bf
-1.553035 -1.4684608 -1.4649549 -1.3001761 -1.2708983 -1.5382118 -1.2451478 -1.2408361
-1.3718269 -1.319808 -1.26346 -1.2841878 -1.5206779 -1.3851986 -1.3568892 -1.3238388
-1.5347795 -1.5335158 -1.3537627 -1.2797656 -1.2440679 -1.3349994 -1.2608317 -1.4188359
-1.5104831 -1.4643219 -1.366216 -1.5051656 -1.305912 -1.5495012 -1.430231 -1.3468384
-1.4215918 -1.3333825 -1.3596574 -1.4950473 -1.3758006 -1.2929976 -1.5017024 -1.4791427
-1.4059081 -1.5215741 -1.5289326 -1.501332 -1.4560914 -1.5175424 -1.5542432 -1.4164493
-1.4725069 -1.5334569 -1.3317162 -1.3207008 -1.4662658 -1.538883 -1.3821361 -1.3789275
-1.389005 -1.3240314 -1.4323821 -1.5049286 -1.3267148 -1.344725 -1.528899 -1.3100442
-1.4243519 -1.3678057 -1.277468 -1.2220615 -1.3364581 -1.4244584 -1.2910085 -1.4152455
-1.5171554 -1.5213844 -1.5145645 -1.2491056 -1.5151128 -1.312402 -1.2280377 -1.4553506
-1.2836648 -1.295839 -1.5016475 -1.3841728 -1.4267164 -1.551092 -1.4840809 -1.3079389
-1.4085369 -1.2146223 -1.2580035 -1.4967691 -1.3745366 -1.3893073 -1.4512902 -1.3115584
-1.2765191 -1.5303534 -1.5057727 -1.5459495 -1.495529 -1.3668764 -1.4856074 -1.338493
-1.4622432 -1.3579185 -1.3551751 -1.4989035 -1.3580908 -1.2704706 -1.2191205 -1.4781688
-1.444131 -1.2265707 -1.2177074 -1.4886135 -1.4049125 -1.4606981 -1.334895 -1.5430708
-1.465191 -1.2708544 -1.3131666 -1.276312 -1.3297963 -1.5331715 -1.2427653 -1.3857234
-1.5156752 -1.4121687 -1.4987714 -1.5102047 -1.340659 -1.3888295 -1.4813031 -1.2988638
-1.3643526 -1.2796379 -1.3577329 -1.2683309 -1.4136658 -1.3525654 -1.3634603 -1.2669473
-1.3093059 -1.5016626 -1.3934448 -1.3427044 -1.256548 -1.4044647 -1.369925 -1.3584338
-1.4772775 -1.530016 -1.5151321 -1.5123938 -1.4476365 -1.3772475 -1.422529 -1.5652062
-1.2519784 -1.4379302 -1.5255808 -1.2177755 -1.3833327 -1.409618 -1.2676674 -1.4403923
-1.3431958 -1.3680836 -1.2926615 -1.2271262 -1.3809285 -1.3770038 -1.4579136 -1.5569152
-1.3452538 -1.494359 -1.269926 -1.255799 -1.2710675 -1.3918267 -1.5163543 -1.3552413
-1.5355123 -1.2355292 -1.2821649 -1.2533355 -1.2594379 -1.5279882 -1.368141 -1.3230152
-1.3210576 -1.5074887 -1.4650738 -1.3353902 -1.4607021 -1.3801693 -1.3695738 -1.3431395
-1.3453025 -1.3875542 -1.5047208 -1.3765961 -1.3772333 -1.5645692 -1.543799 -1.5581485
-1.3669965 -1.2303599 -1.3178186 -1.368161 -1.3210864 -1.4360305 -1.5123621 -1.5252455
-1.3646613 -1.393126 -1.4519058 -1.4979216 -1.4125159 -1.5494465 -1.4626484 -1.4472766
-1.4539849 -1.2802837 -1.339312 -1.4901322 -1.5161222 -1.4930034 -1.2987022 -1.5278491
-1.2381502 -1.565112 -1.5021925 -1.2959116 -1.3598335 -1.242302 -1.3058722 -1.2527821
-1.4089913 -1.3956293 -1.4283249 -1.3856381 -1.5639745 -1.5557402 -1.2186531 -1.3246149
-1.2885345 -1.3619456 -1.4035778 -1.3777342 -1.3854693 -1.2958319 -1.4019318 -1.4101584

gc2.bias f4 [32]
00000000: 269d b1bf 649b 9fbf 855e b3bf 8024 9fbf
00000010: 64b9 b0bf 1282 b8bf ec48 babf f8ed 9cbf
00000020: 4ac4 9ebf e045 b5bf 28df a0bf 486e bebf
00000030: 9378 a0bf 5e1c b3bf 670b a7bf 21eb bebf
00000040: fbe5 a2bf 9df2 9fbf 779c bcbf 98e1 b1bf
00000050: 18d2 a1bf 1754 a7bf 64e5 c2bf 6d58 c4bf
00000060: b027 9ebf f888 acbf 0b67 bbbf 78da c7bf
00000070: 9251 9ebf 5961 a6bf 214d acbf 1a03 a2bf
-1.3876083 -1.2469296 -1.401322 -1.2433014 -1.3806577 -1.4414694 -1.4553504 -1.2260122
-1.2403653 -1.4161949 -1.2568102 -1.4877405 -1.2536796 -1.3993032 -1.3050355 -1.4915506
-1.2726434 -1.2495915 -1.4735249 -1.3896971 -1.264224 -1.3072537 -1.5226254 -1.5339485
-1.2355862 -1.34793 -1.4640821 -1.5613546 -1.2368643 -1.2998458 -1.3461038 -1.2657197
