model_weight/1681627864.6037953.pth (torch, 3935 bytes, 4 tensors)

gc1.weight f4 [3, 16]
1.4946766 1.3674746 1.4054147 -0.6215718 1.3398316 1.5278456 1.6388845 1.2252997
1.5220044 1.4744905 1.5148088 1.4816389 1.597909 1.5557458 1.4455184 1.2384895
1.4379457 1.3486 1.5409622 0.023973754 1.5738503 1.2352437 1.4697231 1.5143257
1.4322417 1.035378 1.2355113 1.353218 1.4714324 1.3279082 1.3483537 1.3188101
1.2594672 1.2051228 1.562061 -0.48815283 1.4431436 1.6340575 1.5239859 1.6117827
1.58166 1.3624341 1.2961127 1.5139048 1.2363607 1.3876702 1.336664 1.0402595
00000000: 9051 bf3f 6809 af3f a1e4 b33f 541f 1fbf
00000010: 9a7f ab3f 7290 c33f f8c6 d13f 9fd6 9c3f
00000020: 0ad1 c23f 1bbc bc3f 41e5 c13f 58a6 bd3f
00000030: 4888 cc3f ae22 c73f bf06 b93f d386 9e3f
00000040: 9b0e b83f ed9e ac3f 403e c53f 9b64 c43c
00000050: ed73 c93f 771c 9e3f e31f bc3f 6dd5 c13f
00000060: b253 b73f 4487 843f 3c25 9e3f 3f36 ad3f
00000070: e657 bc3f e5f8 a93f db96 ac3f c5ce a83f
00000080: 3936 a13f 7741 9a3f 9df1 c73f 2bef f9be
00000090: eeb8 b83f cc28 d13f f811 c33f e54e ce3f
000000a0: d673 ca3f 3e64 ae3f 05e7 a53f a2c7 c13f
000000b0: 1141 9e3f 2d9f b13f ce17 ab3f 3927 853f

gc1.bias f4 [16]
1.4475609 1.5466752 1.4558507 -0.87887454 1.2047981 1.3467854 1.2865841 1.233717
1.296199 1.2235885 1.5908653 1.182409 1.3617433 1.3486704 1.3734759 1.1176559
00000000: ad49 b93f 74f9 c53f 5159 ba3f ecfd 60bf
00000010: d336 9a3f 7763 ac3f caae a43f 70ea 9d3f
00000020: d9e9 a53f 8c9e 9c3f 79a1 cb3f 2e59 973f
00000030: 9b4d ae3f 3ba1 ac3f 0fce af3f 590f 8f3f

gc2.weight f4 [16, 32]
-1.3168502 -1.3701161 -1.3980281 -1.5419521 -1.2600642 -1.5352304 -1.2614007 -1.2291126
-1.4779576 -1.4497952 -1.3501846 -1.3670753 -1.4710714 -1.2760043 -1.3286418 -1.2386981
-1.5357215 -1.4738202 -1.4253206 -1.3634307 -1.4657729 -1.3193824 -1.2485958 -1.4452183
-1.3106176 -1.3441168 -1.3723466 -1.4419062 -1.4538866 -1.4714772 -1.2380731 -1.3156115
-1.3430654 -1.4458587 -1.3398019 -1.3839189 -1.4169321 -1.2640351 -1.3677555 -1.5282508
-1.5567786 -1.4573103 -1.2219675 -1.2836862 -1.5026098 -1.2474911 -1.2361175 -1.5494295
-1.423558 -1.4732562 -1.4931462 -1.5468975 -1.2780901 -1.3378768 -1.3057216 -1.2530478
-1.4630036 -1.2334108 -1.321656 -1.2140952 -1.2197287 -1.2317767 -1.4239681 -1.5358497
-1.4870422 -1.4633676 -1.2772244 -1.2720689 -1.3783425 -1.3226857 -1.3979652 -1.3939599
-1.4157248 -1.35599 -1.261198 -1.445483 -1.4957752 -1.3403894 -1.4997189 -1.3622926
-1.3472368 -1.3111197 -1.4166467 -1.3334742 -1.5316149 -1.3445473 -1.5222106 -1.5248727
-1.5157185 -1.5057063 -1.5352762 -1.4658092 -1.3582386 -1.4686605 -1.4944483 -1.4798354
-1.2500627 -1.2415537 -1.3517576 -1.22045 -1.3269554 -1.3330988 -1.266423 -1.3822137
-1.4670761 -1.3664088 -1.4869663 -1.5480219 -1.2309873 -1.4823141 -1.4885606 -1.2232616
-1.4613284 -1.4394418 -1.2174206 -1.4773191 -1.2843422 -1.3872151 -1.3080822 -1.2504796
-1.2371848 -1.2974504 -1.3556753 -1.401316 -1.4269418 -1.5185689 -1.4904277 -1.26786
-1.5354367 -1.3174137 -1.2731032 -1.5602813 -1.283144 -1.2646302 -1.5000094 -1.3204402
-1.2801006 -1.3608669 -1.4169956 -1.5512838 -1.3192941 -1.5164566 -1.3283465 -1.3258958
-1.4758544 -1.4587241 -1.2462707 -1.5074968 -1.3127766 -1.4828765 -1.567392 -1.4758204
-1.4400444 -1.3678836 -1.4271743 -1.3824404 -1.4921929 -1.2488325 -1.3404871 -1.373444
-1.5440111 -1.3327287 -1.3453687 -1.2584943 -1.3121625 -1.4391361 -1.4380139 -1.3423535
-1.4148588 -1.4710245 -1.3993907 -1.5622934 -1.4045179 -1.3099966 -1.5428702 -1.3678613
-1.4984814 -1.5553449 -1.2235202 -1.3496892 -1.3410659 -1.2760769 -1.2385073 -1.4065976
-1.2202753 -1.5454687 -1.439768 -1.5089444 -1.4158747 -1.5007026 -1.422164 -1.3795336
-1.5024132 -1.5693169 -1.5288577 -1.4457027 -1.3877299 -1.3914204 -1.2957956 -1.3866876
-1.3296387 -1.3049043 -1.2220252 -1.5604728 -1.3850907 -1.4680501 -1.3957583 -1.2619654
-1.366515 -1.3895698 -1.4242002 -1.4295082 -1.4816108 -1.4591783 -1.2769102 -1.5674369
-1.4108179 -1.2718207 -1.4435186 -1.3829074 -1.4595739 -1.3603598 -1.3178757 -1.4558419
-1.4980038 -1.2754381 -1.2304668 -1.2775456 -1.4944078 -1.3211104 -1.2994626 -1.4714649
-1.3591821 -1.4202834 -1.2291064 -1.534684 -1.3137591 -1.2689844 -1.4287411 -1.2957475
-1.552412 -1.4344617 -1.3414891 -1.4689292 -1.542001 -1.3099903 -1.5093133 -1.2981954
-1.5268022 -1.5308076 -1.4935942 -1.3658698 -1.505927 -1.4990226 -1.3061239 -1.2407117
00000000: 8c8e a8bf f75f afbf 96f2 b2bf b05e c5bf
00000010: c949 a1bf 6e82 c4bf 9475 a1bf 9053 9dbf
00000020: b72d bdbf e492 b9bf d9d2 acbf 53fc aebf
00000030: 114c bcbf 1c54 a3bf ef10 aabf a98d 9ebf
00000040: 8692 c4bf 24a6 bcbf e870 b6bf e684 aebf
00000050: 729e bbbf 86e1 a8bf fdd1 9fbf eafc b8bf
00000060: 51c2 a7bf 050c acbf 0ea9 afbf 6290 b8bf
00000070: f518 babf 5d59 bcbf 2e79 9ebf f565 a8bf
00000080: 91e9 abbf e611 b9bf a17e abbf 4124 b1bf
00000090: 085e b5bf e7cb a1bf 9d12 afbf b99d c3bf
000000a0: 8544 c7bf 2589 babf 6e69 9cbf d44f a4bf
000000b0: 8555 c0bf caad 9fbf 1939 9ebf b553 c6bf
000000c0: 2637 b6bf a993 bcbf 6a1f bfbf bd00 c6bf
000000d0: 7598 a3bf 8c3f abbf e321 a7bf df63 a0bf
000000e0: b443 bbbf 68e0 9dbf 062c a9bf 7967 9bbf
000000f0: 1220 9cbf dcaa 9dbf 9644 b6bf b996 c4bf
00000100: 6657 bebf a14f bbbf 177c a3bf 27d3 a2bf
00000110: 876d b0bf c44d a9bf 86f0 b2bf 476d b2bf
00000120: 7836 b5bf 1591 adbf f06e a1bf 9605 b9bf
00000130: 9075 bfbf e191 abbf caf6 bfbf 9b5f aebf
00000140: 4172 acbf c5d2 a7bf ae54 b5bf 48af aabf
00000150: f50b c4bf 201a acbf ccd7 c2bf 072f c3bf
00000160: 1003 c2bf fcba c0bf ee83 c4bf a39f bbbf
00000170: c3da adbf 11fd bbbf 154a bfbf 3f6b bdbf
00000180: 0e02 a0bf 3beb 9ebf 6506 adbf b537 9cbf
00000190: add9 a9bf fba2 aabf 261a a2bf 61ec b0bf
000001a0: 26c9 bbbf 7ce6 aebf e954 bebf 9525 c6bf
000001b0: fe90 9dbf 78bc bdbf 2789 bebf d693 9cbf
000001c0: cf0c bbbf a13f b8bf 70d4 9bbf cb18 bdbf
000001d0: 5365 a4bf 4490 b1bf 3d6f a7bf b70f a0bf
000001e0: 125c 9ebf db12 a6bf c586 adbf 535e b3bf
000001f0: 07a6 b6bf 7760 c2bf 56c6 bebf 3d49 a2bf
00000200: 3189 c4bf 03a1 a8bf 0cf5 a2bf 4cb7 c7bf
00000210: 103e a4bf 67df a1bf 4f00 c0bf 2f04 a9bf
00000220: 56da a3bf e330 aebf 1d60 b5bf 7890 c6bf
00000230: a1de a8bf 401b c2bf 4207 aabf f4b6 a9bf
00000240: cce8 bcbf 79b7 babf cc85 9fbf a8f5 c0bf
00000250: 1009 a8bf e6ce bdbf 4da0 c8bf afe7 bcbf
00000260: 6053 b8bf cf16 afbf a6ad b6bf cff3 b0bf
00000270: 2d00 bfbf bed9 9fbf 1595 abbf 03cd afbf
00000280: 28a2 c5bf db96 aabf 0b35 acbf 5716 a1bf
00000290: f1f4 a7bf 9d35 b8bf d710 b8bf 3dd2 abbf
000002a0: 181a b5bf 884a bcbf 3c1f b3bf 3bf9 c7bf
000002b0: 3ec7 b3bf f8ad a7bf c57c c5bf 1416 afbf
000002c0: 3dce bfbf 8b15 c7bf 4f9c 9cbf 9ec2 acbf
000002d0: 0ca8 abbf 7d56 a3bf 6887 9ebf 640b b4bf
000002e0: fb31 9cbf ebd1 c5bf 514a b8bf 1725 c1bf
000002f0: 623b b5bf 0617 c0bf 7809 b6bf 8f94 b0bf
00000300: 134f c0bf 60df c8bf 9cb1 c3bf c90c b9bf
00000310: 22a1 b1bf 101a b2bf a1dc a5bf fb7e b1bf
00000320: 9a31 aabf 1b07 a7bf 526b 9cbf 93bd c7bf
00000330: a74a b1bf 11e9 bbbf 35a8 b2bf 1588 a1bf
00000340: f7e9 aebf 6cdd b1bf 314c b6bf 20fa b6bf
00000350: 6ca5 bdbf 5bc6 babf cb71 a3bf c6a1 c8bf
00000360: ae95 b4bf 05cb a2bf 38c5 b8bf 1c03 b1bf
00000370: 51d3 babf 4520 aebf 27b0 a8bf 0759 babf
00000380: 97be bfbf 8e41 a3bf f07f 9dbf 9d86 a3bf
00000390: c148 bfbf 251a a9bf ca54 a6bf f658 bcbf
000003a0: aef9 adbf d9cb b5bf 5c53 9dbf 8670 c4bf
000003b0: 4229 a8bf 156e a2bf fde0 b6bf 0edb a5bf
000003c0: 70b5 c6bf 719c b7bf eab5 abbf df05 bcbf
000003d0: 4a60 c5bf c3ad a7bf 2e31 c1bf 442b a6bf
000003e0: 416e c3bf 81f1 c3bf 182e bfbf d2d4 aebf
000003f0: 37c2 c0bf f9df bfbf 112f a7bf a4cf 9ebf

gc2.bias f4 [32]
-1.533823 -1.3514767 -1.2244953 -1.2725248 -1.3473005 -1.5448524 -1.3068876 -1.3699988
-1.380118 -1.4586948 -1.3317719 -1.3068436 -1.2811652 -1.3610317 -1.4790608 -1.2627803
-1.5277908 -1.2200849 -1.2425474 -1.3575315 -1.4534326 -1.4094696 -1.2595192 -1.4011637
-1.2761428 -1.3323512 -1.5357778 -1.3340572 -1.3961712 -1.4210212 -1.2665117 -1.4129502
00000000: 5054 c4bf 30fd acbf 43bc 9cbf 18e2 a2bf
00000010: 5874 acbf b9bd c5bf 1848 a7bf 1f5c afbf
00000020: b5a7 b0bf 83b6 babf 8077 aabf a746 a7bf
00000030: 39fd a3bf 4936 aebf dd51 bdbf c9a2 a1bf
00000040: a68e c3bf be2b 9cbf cb0b 9fbf 98c3 adbf
00000050: 140a babf 8069 b4bf ed37 a1bf 5559 b3bf
00000060: a658 a3bf 7c8a aabf 5e94 c4bf 63c2 aabf
00000070: bdb5 b2bf 06e4 b5bf 0e1d a2bf 8ddb b4bf
