model_weight/1681627057.432267.pth (torch, 3871 bytes, 4 tensors)

gc1.weight f4 [3, 16]
4.050725 4.1517706 4.038462 4.1501665 3.8921957 4.335316 3.8696709 4.206177
3.9303455 3.9282172 3.8660002 3.8629248 3.950962 4.088796 4.1087856 4.168048
4.2704687 4.124161 3.8622549 4.1528497 3.9387834 4.155999 3.9513366 4.0999184
4.283215 4.0087686 4.153399 4.1727333 4.19429 4.0034447 3.9071722 3.7977803
4.0655403 3.88844 4.0547185 4.231347 4.136438 3.9893978 4.1173506 4.0941725
4.232693 4.1051226 4.1285996 4.29848 3.9206655 3.9184108 4.106723 4.1364803
00000000: 8a9f 8140 4edb 8440 153b 8140 2ace 8440
00000010: bc19 7940 e9ba 8a40 b0a8 7740 0199 8640
00000020: c88a 7b40 e967 7b40 8c6c 7740 293a 7740
00000030: 90dc 7c40 6bd7 8240 2c7b 8340 a660 8540
00000040: aea7 8840 20f9 8340 2f2f 7740 25e4 8440
00000050: 0715 7c40 f2fd 8440 b3e2 7c40 8832 8340
00000060: 1910 8940 d547 8040 a5e8 8440 0887 8540
00000070: a037 8640 381c 8040 1c0f 7a40 d50e 7340
00000080: e818 8240 33dc 7840 41c0 8140 3267 8740
00000090: b35d 8440 4b52 7f40 56c1 8340 7603 8340
000000a0: 3972 8740 2a5d 8340 7d1d 8440 268d 8940
000000b0: 2fec 7a40 3ec7 7a40 466a 8340 0c5e 8440

gc1.bias f4 [16]
4.2047024 4.301186 3.897228 4.0594616 3.9310954 3.853059 3.8535035 3.8461132
3.85119 4.198802 4.1141734 4.1907563 4.187599 3.950037 4.2669034 3.7686822
00000000: ec8c 8640 51a3 8940 2f6c 7940 1ce7 8140
00000010: 1197 7b40 8598 7640 cd9f 7640 b826 7640
00000020: e679 7640 965c 8640 4fa7 8340 ad1a 8640
00000030: d000 8640 68cd 7c40 798a 8840 1732 7140

gc2.weight f4 [16, 32]
-3.9043171 -4.051198 -3.9182837 -3.9096746 -4.043129 -4.026129 -4.119112 -4.108039
-4.124174 -3.970481 -4.1625705 -4.0735793 -3.9252949 -4.0931983 -3.9796739 -4.16268
-4.0278993 -4.127575 -4.16455 -4.1263757 -3.8947065 -4.219342 -4.1712613 -4.0404835
-4.168102 -4.171602 -3.9626777 -4.061078 -4.121903 -4.179613 -3.91078 -4.2394214
-4.178749 -4.0597925 -3.9498048 -4.107512 -4.2292933 -3.9795089 -4.1390343 -4.041652
-4.056289 -3.9805646 -3.9256396 -4.024775 -4.016584 -4.084979 -3.9765058 -4.1526704
-4.137326 -4.207396 -3.9043634 -4.0940065 -4.2092547 -3.9791715 -3.9316714 -4.049477
-4.230867 -4.1007905 -3.9557312 -4.109369 -4.1227584 -4.239169 -4.0275226 -4.1609855
-4.1436987 -4.0354557 -3.9758272 -3.9532988 -3.9224305 -4.2324176 -3.979507 -3.9053555
-3.9553664 -4.195889 -3.9548438 -4.1428304 -4.1055264 -4.216739 -3.9948251 -4.0497193
-4.2396917 -4.0945473 -4.077542 -3.9064867 -4.1263294 -4.0849457 -4.016928 -4.1011634
-4.17442 -4.188385 -4.1974955 -3.8950791 -3.955113 -4.0389924 -3.9702535 -3.9818609
-4.1859684 -4.027799 -4.1895747 -4.058447 -3.924267 -4.07883 -4.2299376 -4.0099473
-4.2259045 -4.141744 -4.1519885 -4.0802126 -4.2239904 -4.134351 -4.1156693 -4.0707736
-4.2201157 -4.055659 -3.9077866 -3.9173114 -4.0866065 -4.0596056 -4.019024 -4.2327485
-4.1142783 -4.148704 -4.079082 -4.239576 -3.992326 -3.9072776 -4.056696 -4.003085
-4.001764 -4.042211 -4.068217 -4.123943 -4.226121 -4.0899014 -4.090744 -4.1666784
-3.983368 -4.1752143 -4.187351 -4.1937857 -4.228611 -4.010258 -4.0589767 -4.065327
-3.9645472 -4.243893 -4.0099316 -4.2121205 -4.101607 -4.1337576 -4.0596514 -4.162737
-4.084347 -3.9491637 -4.135169 -3.9433634 -4.03767 -3.9850173 -4.0145965 -4.0444736
-3.923133 -4.164252 -4.233919 -4.167487 -3.9221518 -4.000315 -3.9878476 -4.1343875
-4.1948385 -3.9750729 -4.153159 -3.9728012 -4.0757937 -4.0247965 -4.185256 -4.1364117
-4.052772 -4.193259 -3.955728 -3.904272 -4.106217 -4.087556 -4.188436 -4.239375
-3.9398403 -3.9652812 -3.9725204 -4.1722727 -4.158133 -4.135746 -4.072067 -4.1604056
-4.125222 -4.191759 -3.9172723 -3.9555755 -3.9952054 -3.9413931 -4.171738 -3.9960046
-4.0577226 -3.9896445 -4.1646223 -3.9419615 -4.2216754 -4.1895094 -4.0188518 -3.9984124
-4.238797 -4.0886245 -4.0046344 -3.9071662 -3.932894 -4.192781 -4.110741 -3.9899116
-4.148219 -3.9182966 -4.043753 -4.0103993 -3.9813902 -4.2361336 -3.9996676 -4.0068855
-4.0262136 -3.9940374 -4.081085 -4.1511545 -3.9942327 -4.0484533 -4.1989794 -3.9970024
-3.9469755 -3.943347 -4.184012 -4.117844 -3.9331102 -4.1114745 -3.900197 -4.130016
-4.148521 -4.0977445 -4.013552 -4.082953 -4.173471 -4.010287 -4.01683 -3.9363494
-3.9337947 -3.8904939 -4.215511 -4.011062 -3.9815774 -3.940196 -4.1756477 -4.0586715
00000000: 55e0 79c0 6aa3 81c0 29c5 7ac0 1c38 7ac0
00000010: 5061 81c0 0cd6 80c0 c4cf 83c0 0e75 83c0
00000020: 3cf9 83c0 5c1c 7ec0 c733 85c0 c35a 82c0
00000030: 0838 7bc0 7bfb 82c0 fab2 7ec0 ad34 85c0
00000040: 8de4 80c0 1815 84c0 fe43 85c0 450b 84c0
00000050: df42 79c0 da04 87c0 f97a 85c0 a44b 81c0
00000060: 1761 85c0 c37d 85c0 839c 7dc0 5af4 81c0
00000070: a1e6 83c0 64bf 85c0 384a 7ac0 57a9 87c0
00000080: 50b8 85c0 d2e9 81c0 9ac9 7cc0 bd70 83c0
00000090: 5f56 87c0 46b0 7ec0 f872 84c0 3755 81c0
000000a0: 1fcd 81c0 92c1 7ec0 ae3d 7bc0 f5ca 80c0
000000b0: db87 80c0 26b8 82c0 127f 7ec0 ade2 84c0
000000c0: f964 84c0 fda2 86c0 17e1 79c0 1a02 83c0
000000d0: 37b2 86c0 bfaa 7ec0 81a0 7bc0 5195 81c0
000000e0: 4363 87c0 ad39 83c0 b32a 7dc0 f37f 83c0
000000f0: a3ed 83c0 46a7 87c0 77e1 80c0 cb26 85c0
00000100: 2e99 84c0 7422 81c0 f473 7ec0 d902 7dc0
00000110: 1a09 7bc0 f76f 87c0 3eb0 7ec0 58f1 79c0
00000120: b924 7dc0 b944 86c0 291c 7dc0 1192 84c0
00000130: 7960 83c0 87ef 86c0 37ab 7fc0 4d97 81c0
00000140: 8eab 87c0 8806 83c0 397b 82c0 e103 7ac0
00000150: e40a 84c0 e0b7 82c0 ad8a 80c0 bb3c 83c0
00000160: d994 85c0 4007 86c0 e251 86c0 fa48 79c0
00000170: 9220 7dc0 6d3f 81c0 a218 7ec0 cfd6 7ec0
00000180: 74f3 85c0 bbe3 80c0 ff10 86c0 ccde 81c0
00000190: 3127 7bc0 c685 82c0 a65b 87c0 7d51 80c0
000001a0: 9c3a 87c0 2b89 84c0 17dd 84c0 1a91 82c0
000001b0: ee2a 87c0 9a4c 84c0 90b3 83c0 c743 82c0
000001c0: 300b 87c0 f5c7 81c0 2d19 7ac0 3bb5 7ac0
000001d0: 7bc5 82c0 4ae8 81c0 d89b 80c0 ad72 87c0
000001e0: 2ba8 83c0 2fc2 84c0 d787 82c0 9baa 87c0
000001f0: 4582 7fc0 d610 7ac0 74d0 81c0 4619 80c0
00000200: 730e 80c0 cb59 81c0 d52e 82c0 57f7 83c0
00000210: 623c 87c0 79e0 82c0 60e7 82c0 6e55 85c0
00000220: 80ef 7ec0 5b9b 85c0 c8fe 85c0 7e33 86c0
00000230: c850 87c0 0954 80c0 23e3 81c0 2917 82c0
00000240: 24bb 7dc0 f9cd 87c0 5c51 80c0 b1c9 86c0
00000250: 5d40 83c0 be47 84c0 aae8 81c0 2435 85c0
00000260: f8b2 82c0 19bf 7cc0 4e53 84c0 1160 7cc0
00000270: 9834 81c0 860a 7fc0 9377 80c0 546c 81c0
00000280: 9c14 7bc0 8d41 85c0 447c 87c0 0e5c 85c0
00000290: 8904 7bc0 9502 80c0 e538 7fc0 e74c 84c0
000002a0: 1e3c 86c0 9867 7ec0 aee6 84c0 6042 7ec0
000002b0: e76c 82c0 22cb 80c0 9eed 85c0 7c5d 84c0
000002c0: 4fb0 81c0 2d2f 86c0 a62a 7dc0 98df 79c0
000002d0: 2166 83c0 42cd 82c0 ab07 86c0 f6a8 87c0
000002e0: 5826 7cc0 2bc7 7dc0 c63d 7ec0 4283 85c0
000002f0: 6d0f 85c0 0858 84c0 5f4e 82c0 0b22 85c0
00000300: d201 84c0 e422 86c0 97b4 7ac0 2628 7dc0
00000310: 72b1 7fc0 c93f 7cc0 e17e 85c0 8abe 7fc0
00000320: ddd8 81c0 5656 7fc0 9644 85c0 1949 7cc0
00000330: f717 87c0 7610 86c0 6f9a 80c0 fde5 7fc0
00000340: 3aa4 87c0 03d6 82c0 f725 80c0 030f 7ac0
00000350: 89b4 7bc0 432b 86c0 318b 83c0 b65a 7fc0
00000360: 36be 84c0 5fc5 7ac0 6d66 81c0 3155 80c0
00000370: 19cf 7ec0 688e 87c0 8efa 7fc0 6838 80c0
00000380: bed6 80c0 4f9e 7fc0 4098 82c0 42d6 84c0
00000390: 82a1 7fc0 ee8c 81c0 0a5e 86c0 e3ce 7fc0
000003a0: 3f9b 7cc0 cc5f 7cc0 6de3 85c0 61c5 83c0
000003b0: 14b8 7bc0 3391 83c0 d49c 79c0 1729 84c0
000003c0: afc0 84c0 b920 83c0 056f 80c0 8da7 82c0
000003d0: 138d 85c0 4554 80c0 df89 80c0 26ed 7bc0
000003e0: 4bc3 7bc0 dafd 78c0 77e5 86c0 9f5a 80c0
000003f0: 2ad2 7ec0 2c2c 7cc0 e89e 85c0 a3e0 81c0

gc2.bias f4 [32]
-4.2312007 -3.9807305 -4.1278353 -4.021738 -4.193716 -3.9418416 -4.0437646 -4.195652
-3.9627748 -4.085011 -4.175981 -3.976725 -4.0727563 -4.2350235 -3.9211113 -3.963015
-4.006303 -3.9463458 -3.9485319 -4.0929995 -4.003463 -4.2173676 -3.9864995 -4.1429467
-4.233754 -4.054757 -3.9864085 -4.1382127 -4.0239315 -4.041637 -4.197125 -4.124309
00000000: ff65 87c0 4ac4 7ec0 3a17 84c0 14b2 80c0
00000010: ec32 86c0 2247 7cc0 8566 81c0 c842 86c0
00000020: 1a9e 7dc0 69b8 82c0 a3a1 85c0 aa82 7ec0
00000030: 0554 82c0 5085 87c0 7df3 7ac0 0aa2 7dc0
00000040: a233 80c0 ee90 7cc0 bfb4 7cc0 daf9 82c0
00000050: 5e1c 80c0 adf4 86c0 cf22 7fc0 0593 84c0
00000060: ea7a 87c0 92c0 81c0 5121 7fc0 3d6c 84c0
00000070: 0cc4 80c0 1755 81c0 d94e 86c0 57fa 83c0
