model_weight/1681630463.725889.pth (torch, 3871 bytes, 4 tensors)

gc1.weight f4 [3, 16]
00000000: 0c0f 793f ec64 7f3f dce9 903f f4ff 723f
00000010: 8680 523f 472f 953f 9e6e 6e3f 1f69 813f
00000020: c808 8e3f 0a5c 9b3f 7de7 953f 906e 523f
00000030: 7401 863f b40a 693f 08d5 483f fefa 983f
00000040: b075 8c3f 00ca 393f dfab 6a3f 96d7 8e3f
00000050: e823 a03f 05de 493f 716c 373f c7f9 953f
00000060: 24a8 703f f065 923f 6e18 9a3f 5027 883f
00000070: 4438 993f 57fe 6d3f 1f8f 7f3f 1106 8c3f
00000080: 6f95 643f a80a 533f df34 813f a6e0 963f
00000090: e686 9e3f 515a 8b3f 39c3 4e3f 7f3c 613f
000000a0: e0b1 813f ba73 903f 18d7 883f de5a 793f
000000b0: d8b6 5f3f f750 903f 71de 5b3f 06d2 7e3f
0.97288585 0.9976337 1.1321368 0.94921803 0.8222736 1.1655053 0.9313754 1.0110205
1.109643 1.2137463 1.171127 0.82199955 1.0469193 0.91031957 0.7845006 1.1951597
1.0973415 0.7257385 0.91668504 1.1159542 1.2510958 0.788544 0.71649843 1.1716851
0.9400656 1.1437359 1.2038705 1.0636997 1.1970296 0.92966217 0.9982776 1.0939351
0.8929052 0.82438135 1.009426 1.1787307 1.2384918 1.0886937 0.80766636 0.87982935
1.0132408 1.1285317 1.0690641 0.9740428 0.8738837 1.1274709 0.85886294 0.9953922

gc1.bias f4 [16]
00000000: 3579 573f df79 943f 3f34 5e3f f1b5 633f
00000010: 8928 6a3f c6a0 863f 844d 5b3f 530c 933f
00000020: 639f 833f a2e8 993f 14c5 763f ccce 5d3f
00000030: 6a70 743f 7056 663f 66a4 8c3f 9eed 683f
0.8416932 1.1599692 0.8679847 0.88949496 0.914681 1.0517814 0.85665154 1.1488136
1.0283016 1.2024119 0.9639447 0.8664367 0.9548403 0.89975643 1.098767 0.90987575

gc2.weight f4 [16, 32]
00000000: 0026 5abf c4fc 4ebf 9fc1 90bf 3d70 86bf
00000010: 1f4b 73bf 4670 87bf 9b6f 7abf e282 7cbf
00000020: 473d 82bf 029a 6abf 2df2 82bf 063c 63bf
00000030: 6f96 92bf ea10 61bf 3517 8cbf 95cf 51bf
00000040: d884 56bf 94ba 86bf 0c6d 62bf 7e1e 5fbf
00000050: 4455 87bf 172a 59bf 9bad 91bf a906 80bf
00000060: 620d 81bf c1cb 84bf 57ad 79bf 0369 88bf
00000070: fece 67bf 9448 92bf b0d0 93bf 5bc9 83bf
00000080: c73e 81bf 870c 82bf 3573 93bf 976b 65bf
00000090: 2e6e 5dbf 9a3a 93bf bc13 5bbf 7b66 5abf
000000a0: b0fe 56bf b19e 52bf 2b45 56bf cb06 91bf
000000b0: f642 5dbf 5860 86bf 8f2d 8abf 2be3 5ebf
000000c0: f4f8 65bf 615e 59bf 4249 83bf 7dac 50bf
000000d0: 259b 86bf 1f5f 86bf fba0 80bf 366f 79bf
000000e0: bfec 83bf 424b 71bf bd42 91bf 3689 8abf
000000f0: 19ff 72bf bf2d 80bf f9e8 81bf 9043 5bbf
00000100: 4404 8fbf 3334 61bf e8bf 59bf 3228 8cbf
00000110: 7a78 8dbf e040 78bf 4b6e 90bf ac68 87bf
00000120: 6e52 92bf 6412 57bf f565 6dbf 1d9d 5ebf
00000130: 87b6 83bf 398d 57bf fbac 60bf da30 7ebf
00000140: 5aca 91bf 632c 67bf cd3f 64bf 9247 85bf
00000150: eddd 5ebf aac5 4dbf e764 74bf c03f 6abf
00000160: 08c7 91bf ea51 8dbf 74dd 66bf 16e5 84bf
00000170: 6bbe 8abf 5342 70bf 4143 91bf f3dd 67bf
00000180: 0fb6 85bf c6c1 72bf d09a 8fbf a32e 5bbf
00000190: feed 64bf 4989 85bf 1057 89bf 9ba9 5cbf
000001a0: 08c9 5fbf 2210 70bf 7b7c 84bf 3ff6 70bf
000001b0: e24b 52bf 99b5 8abf 0874 91bf bb2c 68bf
000001c0: e09e 8ebf 64ec 8abf 85e9 81bf 251d 62bf
000001d0: b2e6 6bbf 1cdb 76bf a171 72bf dedb 80bf
000001e0: 3b98 56bf 62d1 8ebf b1bb 6fbf ea64 85bf
000001f0: b038 6bbf 45ac 63bf 6101 88bf a030 75bf
00000200: 5985 8abf a2e7 82bf c86f 6ebf 6d16 5cbf
00000210: af6d 7dbf 68e9 8dbf dd37 84bf 2f5e 78bf
00000220: d187 58bf 8cfd 5fbf 8070 77bf 2b99 68bf
00000230: 37de 75bf 483d 89bf 7a4b 66bf f417 83bf
00000240: aabf 62bf 5d63 56bf 1c7b 88bf 1ab8 55bf
00000250: a463 92bf 79b0 8cbf b1a6 6fbf 5f80 8fbf
00000260: 5daf 55bf 9e96 8fbf b779 64bf 96ed 88bf
00000270: b0bc 65bf 1ee4 92bf 2cb8 77bf 7fe4 78bf
00000280: d2d9 88bf b927 78bf 8be8 5ebf 40ae 4ebf
00000290: 7923 91bf faa1 58bf ac32 6cbf c180 8cbf
000002a0: bc58 64bf 56af 92bf 4ebc 7ebf d873 68bf
000002b0: bbad 7fbf 579d 84bf 24e5 50bf 95b3 88bf
000002c0: 82c9 90bf 419a 79bf f6af 62bf 9ab0 60bf
000002d0: 5aa7 92bf cae4 63bf b01e 72bf efd1 7fbf
000002e0: c0b8 84bf 9877 53bf ab02 76bf eaf8 53bf
000002f0: 5bf4 70bf 1e9a 83bf f7db 4fbf 4a06 86bf
00000300: b5fd 6abf 52a3 6cbf 71dd 91bf e660 62bf
00000310: 5aac 5abf efd4 5bbf 63a1 8ebf d42f 67bf
00000320: 70b1 8bbf d96c 88bf 3cf0 4dbf 8c72 65bf
00000330: a642 76bf 0741 59bf c967 63bf e1d5 72bf
00000340: bb7f 55bf bf12 65bf b0ad 86bf 8614 6ebf
00000350: 7e66 7fbf 65ea 8abf ce67 88bf cb51 8dbf
00000360: 660c 5fbf 0763 67bf 3021 83bf d4bf 87bf
00000370: e650 6fbf 3cb7 88bf e40d 90bf 1177 5dbf
00000380: bdeb 6ebf 81c7 75bf 2c0d 5fbf 6d58 59bf
00000390: 514a 76bf 5a6a 81bf aa4b 70bf 1587 5abf
000003a0: c3a5 7ebf c182 6cbf 5574 6dbf 2bb4 89bf
000003b0: a55f 8ebf 20e0 81bf 9800 93bf ee99 85bf
000003c0: 38b1 5bbf 210b 80bf 9932 63bf d62b 56bf
000003d0: 193c 86bf 51a4 93bf 00db 65bf 9a3c 7cbf
000003e0: 8586 64bf 5728 88bf c75b 5abf f1fe 5ebf
000003f0: 6f2c 67bf 2e2d 86bf 5d90 83bf cc4f 74bf
-0.85214233 -0.8085444 -1.1309088 -1.0503002 -0.950365 -1.0581138 -0.97826546 -0.9863721
-1.017495 -0.9164125 -1.0230156 -0.88763463 -1.1452159 -0.87916434 -1.0944582 -0.8195737
-0.83796453 -1.0525689 -0.8844764 -0.871559 -1.0572896 -0.8482985 -1.1381105 -1.0002033
-1.0082209 -1.0374681 -0.9753012 -1.0657047 -0.9055022 -1.1428399 -1.1548061 -1.0295824
-1.0097283 -1.0160073 -1.1519533 -0.89617294 -0.86496246 -1.1502259 -0.8557699 -0.8531262
-0.8398237 -0.82273394 -0.8369929 -1.1330198 -0.864303 -1.0498152 -1.0795153 -0.8706538
-0.89833 -0.84909636 -1.0256732 -0.81513196 -1.0516096 -1.0497779 -1.0049127 -0.9743532
-1.0306624 -0.9425546 -1.1348492 -1.0823123 -0.949205 -1.0013961 -1.0149223 -0.8564997
-1.1173177 -0.87970275 -0.8505845 -1.0949767 -1.1052392 -0.9697399 -1.1283659 -1.0578818
-1.1431406 -0.84012437 -0.927337 -0.86958486 -1.0290078 -0.84199864 -0.8776395 -0.9929329
-1.1389878 -0.90302104 -0.8915985 -1.0412467 -0.8705738 -0.80379736 -0.95466465 -0.91503525
-1.1388865 -1.1040623 -0.9018166 -1.0382411 -1.0839361 -0.938512 -1.1348649 -0.9057304
-1.0446185 -0.94826925 -1.121912 -0.85618037 -0.8942565 -1.0432521 -1.0729694 -0.861963
-0.87416124 -0.93774617 -1.0350488 -0.9412574 -0.8214704 -1.0836669 -1.1363535 -0.90693253
-1.1142235 -1.0853391 -1.014939 -0.8832572 -0.9214889 -0.96428084 -0.94704634 -1.0067098
-0.83826035 -1.1157649 -0.9364577 -1.0421422 -0.91883373 -0.8893474 -1.0625421 -0.9577732
-1.0821944 -1.0226939 -0.93139315 -0.8597172 -0.9899549 -1.1086855 -1.0329548 -0.9701871
-0.8458224 -0.87496257 -0.96656036 -0.90858716 -0.960422 -1.0721827 -0.8995892 -1.0241685
-0.88573706 -0.83745366 -1.066257 -0.8348404 -1.1436658 -1.0991355 -0.93613726 -1.1211051
-0.8347071 -1.121784 -0.8924822 -1.0697505 -0.8974104 -1.1475866 -0.967654 -0.9722366
-1.0691473 -0.9693561 -0.8707358 -0.80734634 -1.133895 -0.84622157 -0.9226482 -1.0976793
-0.891979 -1.1459758 -0.9950608 -0.90801764 -0.99874467 -1.0360516 -0.8159964 -1.0679804
-1.1311495 -0.97501 -0.88549745 -0.8776947 -1.1457322 -0.8902098 -0.94578075 -0.9992971
-1.0368881 -0.8260436 -0.9609782 -0.8280169 -0.94122857 -1.0281408 -0.81195015 -1.0470669
-0.91793376 -0.9243671 -1.1395704 -0.88429105 -0.8541924 -0.85871786 -1.1143001 -0.90307355
-1.0913525 -1.0658218 -0.80444694 -0.8962791 -0.9619545 -0.8486485 -0.8883024 -0.94857603
-0.83398026 -0.8948173 -1.0521755 -0.93000066 -0.99765766 -1.0852782 -1.0656679 -1.1040586
-0.87128294 -0.9038548 -1.0244503 -1.0605416 -0.93482816 -1.0680919 -1.1254239 -0.86509806
-0.9332846 -0.96007544 -0.87129474 -0.8490055 -0.9620715 -1.0110581 -0.93865454 -0.8536237
-0.9947168 -0.92387015 -0.92755634 -1.0758108 -1.1122938 -1.0146523 -1.1484556 -1.0437601
-0.8581729 -1.0003396 -0.8874908 -0.8366064 -1.048709 -1.153452 -0.8978729 -0.9852997
-0.8926776 -1.0637311 -0.8529629 -0.8710776 -0.90302175 -1.0482538 -1.0278431 -0.9543426

gc2.bias f4 [32]
00000000: be29 7bbf 28e5 89bf 0543 87bf aff2 88bf
00000010: 1c5d 5cbf 6b8d 51bf ba78 7cbf caf2 85bf
00000020: 9f61 82bf f517 57bf 81b5 8dbf 1dec 70bf
00000030: db0e 51bf a9f8 72bf 1310 90bf 83cb 7abf
00000040: 96f5 8fbf 1a34 63bf 9362 7fbf af80 8cbf
00000050: 59b5 83bf dc7a 8ebf 98f1 83bf 55c9 5bbf
00000060: ac02 85bf 66f1 5fbf 6383 70bf 39b4 8abf
00000070: a17a 59bf feea 67bf 8961 81bf d74f 50bf
-0.9811057 -1.0773058 -1.0567328 -1.0699061 -0.86079574 -0.8185641 -0.98621714 -1.0464718
-1.0186042 -0.8402093 -1.1071016 -0.9411028 -0.8166329 -0.94910675 -1.1254905 -0.97966784
-1.1246822 -0.88751376 -0.9975979 -1.0976771 -1.0289718 -1.1131244 -1.0308104 -0.85854083
-1.039144 -0.8747772 -0.9395048 -1.083625 -0.8495274 -0.90592945 -1.010789 -0.81371826
