model_weight/1681630087.752154.pth (torch, 3935 bytes, 4 tensors)

gc1.weight f4 [3, 16]
1.7878112 1.7818209 1.6173848 1.7763605 1.8522129 1.8275591 1.9857904 1.6032224
2.12417 1.9205064 1.6724367 1.7876171 1.6925408 1.8110789 1.9145979 2.1540654
1.7871907 1.6745733 1.7315695 1.8963867 1.8987613 1.9200081 2.1281207 1.9541246
2.100688 2.0954092 2.0348163 1.8753035 1.7690834 1.7440832 1.8778981 2.0343611
2.1672866 1.741084 2.0100818 2.0019913 1.7735956 2.126573 1.8798239 1.8563495
2.0108132 1.6939324 1.8392274 1.7000488 2.0879304 1.8867252 1.5322115 1.8228422
00000000: ffd6 e43f b512 e43f 7706 cf3f c85f e33f
00000010: 5015 ed3f 75ed e93f 612e fe3f 6436 cd3f
00000020: 67f2 0740 27d3 f53f 6812 d63f a3d0 e43f
00000030: 2da5 d83f 6fd1 e73f 8b11 f53f 35dc 0940
00000040: aac2 e43f 6b58 d63f 12a4 dd3f cdbc f23f
00000050: 9c0a f33f d3c2 f53f 2133 0840 c120 fa3f
00000060: ac71 0640 2f1b 0640 6e3a 0240 f209 f03f
00000070: 5371 e23f 1e3e df3f f75e f03f f932 0240
00000080: d3b4 0a40 d7db de3f 2ea5 0040 a020 0040
00000090: 2e05 e33f c619 0840 129e f03f dc9c ed3f
000000a0: 2ab1 0040 c7d2 d83f ce6b eb3f 339b d93f
000000b0: a7a0 0540 3680 f13f 821f c43f e552 e93f

gc1.bias f4 [16]
1.8123528 1.7833748 1.9579809 1.9074386 1.706008 2.0632188 1.7127669 1.6457019
1.6977198 2.1572218 1.7161863 1.7630105 2.1626866 1.7353935 1.8170649 2.0145628
00000000: 2dfb e73f a045 e43f 1e9f fa3f f326 f43f
00000010: 785e da3f c70b 0440 f23b db3f 5ca6 d23f
00000020: e24e d93f ec0f 0a40 feab db3f 54aa e13f
00000030: 7569 0a40 6021 de3f 9595 e83f 99ee 0040

gc2.weight f4 [16, 32]
-1.8744446 -2.0732868 -1.851925 -1.9379846 -1.9293809 -1.9762341 -2.0095928 -1.7600828
-1.7533302 -1.9989092 -1.8323308 -2.0086956 -1.7805345 -1.8585349 -2.0371118 -1.959997
-1.9244072 -2.0166755 -2.0336623 -1.7703215 -1.8771305 -1.8590963 -1.8146422 -1.8790907
-1.9256738 -2.019931 -1.8502524 -1.9445937 -2.0498588 -1.9179357 -1.7776669 -1.7379662
-1.9263049 -1.9736665 -1.8875525 -1.8284615 -1.7919588 -1.9278435 -2.0674717 -2.0567129
-1.9388078 -1.9047165 -1.8488914 -1.9735987 -1.9721744 -1.9509041 -1.7522949 -1.8210943
-2.033065 -1.8011041 -1.8630497 -1.9156247 -1.8191931 -1.8979174 -2.05276 -1.7606484
-1.8814251 -1.8449961 -2.0826685 -2.0489318 -1.807787 -1.7573535 -1.8821217 -1.9723185
-1.7688261 -1.8570597 -1.9073598 -1.9580461 -1.9202547 -1.9586394 -1.9780761 -1.7584023
-1.7979252 -1.7521728 -1.9857231 -1.8807269 -1.8064018 -1.9502356 -1.7911445 -1.8402548
-1.8081552 -1.757986 -2.031462 -1.8605267 -1.7941414 -1.9700043 -2.0030367 -1.9763542
-2.053046 -1.9825133 -1.8359901 -2.0791242 -1.8307439 -2.0530963 -2.0263655 -1.8065387
-1.7859786 -2.0101752 -1.9799114 -1.8526716 -2.044163 -1.8985819 -2.0484548 -2.013252
-1.8805672 -1.885908 -1.9419308 -1.971294 -1.8116553 -1.9165646 -1.7546306 -1.8388196
-2.0354948 -1.7537016 -1.768047 -2.0127177 -1.7557197 -1.8918355 -1.7769896 -2.0243053
-2.0237129 -1.86745 -1.8684981 -2.0830824 -1.8189166 -1.9056827 -1.9033089 -2.0551236
-1.9434043 -1.8920543 -1.9793502 -1.9948431 -1.8224447 -1.7658149 -1.9147774 -1.9367818
-2.0195134 -1.8753809 -1.7862614 -1.9139779 -1.7512785 -1.8586011 -1.8207235 -1.8594924
-1.8497801 -2.0231998 -1.9502329 -1.7804767 -1.7640158 -1.8557061 -2.0800002 -1.7387758
-1.9297811 -1.9716903 -1.9926463 -2.041896 -1.7932739 -1.7845827 -1.9689702 -1.7503417
-1.9598213 -2.0069637 -1.9419187 -1.8526133 -2.083036 -1.9426277 -2.0486515 -2.07259
-1.8187659 -1.8876425 -2.0800982 -2.0285375 -1.8693999 -1.8698038 -1.7922306 -1.8955535
-2.02235 -2.0376263 -1.9887125 -1.8029494 -1.9457942 -2.0518084 -2.018502 -1.7828082
-2.0224273 -1.9655476 -2.0552006 -1.8966814 -1.8066183 -2.069763 -1.8024234 -1.8066221
-1.7374616 -1.8956566 -1.7356775 -2.0093632 -2.0016806 -1.879167 -1.796124 -1.9939064
-1.93646 -1.7669356 -1.9883385 -1.8827024 -1.9662842 -1.941223 -2.0102897 -1.895317
-2.0816207 -1.9152038 -1.8242154 -2.0645132 -1.9008367 -1.7753772 -2.0013504 -2.0343478
-1.7583419 -2.0621572 -1.8099116 -2.061603 -2.0706172 -1.8853751 -1.9433887 -1.889166
-1.7596912 -1.9234393 -2.0107749 -1.9879774 -1.9839499 -1.8093206 -1.9981414 -1.9072292
-1.7846521 -1.8541187 -1.8694555 -1.8668085 -1.8502158 -1.9803882 -1.8644147 -1.9340768
-1.7488976 -1.8426241 -2.0507398 -1.868925 -1.7468197 -1.7433696 -1.9965786 -2.083012
-1.9044747 -2.0274 -1.7377679 -2.0446422 -1.8944645 -1.8336172 -1.7889711 -1.7798067
00000000: cded efbf bbb0 04c0 e10b edbf e10f f8bf
00000010: f4f5 f6bf 3df5 fcbf 2b9d 00c0 654a e1bf
00000020: 206d e0bf 42dc ffbf d189 eabf 788e 00c0
00000030: 8ee8 e3bf 79e4 edbf 0a60 02c0 2fe1 fabf
00000040: fa52 f6bf 3611 01c0 8627 02c0 e599 e2bf
00000050: d045 f0bf def6 edbf 3246 e8bf 0b86 f0bf
00000060: 7b7c f6bf 8d46 01c0 12d5 ecbf 72e8 f8bf
00000070: e330 03c0 eb7e f5bf 978a e3bf ad75 debf
00000080: 2991 f6bf 1ba1 fcbf 529b f1bf 070b eabf
00000090: e85e e5bf 93c3 f6bf 7551 04c0 2fa1 03c0
000000a0: db2a f8bf c0cd f3bf 79a8 ecbf e29e fcbf
000000b0: 3670 fcbf 3ab7 f9bf 334b e0bf 9e19 e9bf
000000c0: bd1d 02c0 948a e6bf 6a78 eebf 3133 f5bf
000000d0: 52db e8bf f5ee f2bf 6b60 03c0 ed5c e1bf
000000e0: 8ad2 f0bf d528 ecbf 714a 05c0 b321 03c0
000000f0: 9065 e7bf f6f0 e0bf 5de9 f0bf ef74 fcbf
00000100: e568 e2bf 22b4 edbf 5e24 f4bf 41a1 fabf
00000110: e8ca f5bf b2b4 fabf 9931 fdbf 5413 e1bf
00000120: 6a22 e6bf 3347 e0bf 2d2c febf a9bb f0bf
00000130: 2d38 e7bf 52a1 f9bf 3944 e5bf 788d ebbf
00000140: a171 e7bf af05 e1bf 7903 02c0 bd25 eebf
00000150: 6da6 e5bf 1a29 fcbf c131 00c0 2df9 fcbf
00000160: 1b65 03c0 ffc2 fdbf b901 ebbf 5f10 05c0
00000170: d155 eabf ee65 03c0 f9af 01c0 a93c e7bf
00000180: f29a e4bf b6a6 00c0 bd6d fdbf 5824 edbf
00000190: 91d3 02c0 bb04 f3bf e219 03c0 1fd9 00c0
000001a0: 6db6 f0bf 6f65 f1bf 3091 f8bf 5d53 fcbf
000001b0: 52e4 e7bf fd51 f5bf bc97 e0bf 715e ebbf
000001c0: 8c45 02c0 4b79 e0bf 5d4f e2bf 5ed0 00c0
000001d0: 6cbb e0bf aa27 f2bf 6574 e3bf 388e 01c0
000001e0: 8384 01c0 9a08 efbf f22a efbf 3951 05c0
000001f0: 42d2 e8bf 69ed f3bf a09f f3bf 2587 03c0
00000200: 79c1 f8bf d62e f2bf 595b fdbf 0557 ffbf
00000210: de45 e9bf 3906 e2bf 6d17 f5bf 77e8 f7bf
00000220: b53f 01c0 7b0c f0bf 37a4 e4bf 3afd f4bf
00000230: e529 e0bf a4e6 edbf 780d e9bf d903 eebf
00000240: 98c5 ecbf 1b7c 01c0 3ba1 f9bf a9e6 e3bf
00000250: 45cb e1bf c787 edbf b91e 05c0 3590 debf
00000260: 1103 f7bf 5960 fcbf 090f ffbf 6dae 02c0
00000270: 008a e5bf 356d e4bf 3707 fcbf 320b e0bf
00000280: 6ddb fabf 1872 00c0 cb90 f8bf 6f22 edbf
00000290: 7650 05c0 06a8 f8bf 1b1d 03c0 51a5 04c0
000002a0: 52cd e8bf 459e f1bf 5420 05c0 8fd3 01c0
000002b0: 7f48 efbf bb55 efbf d067 e5bf 7fa1 f2bf
000002c0: 2f6e 01c0 7868 02c0 228e febf 0cc7 e6bf
000002d0: c90f f9bf d450 03c0 232f 01c0 0f33 e4bf
000002e0: 736f 01c0 1097 fbbf 6888 03c0 75c6 f2bf
000002f0: 453f e7bf ff76 04c0 cfb5 e6bf 653f e7bf
00000300: 2465 debf e0a4 f2bf ae2a debf 6899 00c0
00000310: 891b 00c0 8b88 f0bf 64e7 e5bf 5338 ffbf
00000320: ecdd f7bf f22a e2bf e081 febf 64fc f0bf
00000330: 33af fbbf ff79 f8bf 96a8 00c0 bf99 f2bf
00000340: 4639 05c0 6625 f5bf e47f e9bf fc20 04c0
00000350: 9e4e f3bf 8f3f e3bf 2016 00c0 c132 02c0
00000360: 5911 e1bf 62fa 03c0 2fab e7bf 4ef1 03c0
00000370: fe84 04c0 f953 f1bf f6c0 f8bf 31d0 f1bf
00000380: 903d e1bf 4233 f6bf 89b0 00c0 0b76 febf
00000390: 12f2 fdbf d197 e7bf 19c3 ffbf 1620 f4bf
000003a0: 7b6f e4bf c353 edbf 514a efbf 95f3 eebf
000003b0: dfd3 ecbf 5c7d fdbf 24a5 eebf d48f f7bf
000003c0: e0db dfbf 1bdb ebbf 523f 03c0 ef38 efbf
000003d0: ca97 dfbf bc26 dfbf e38f ffbf 1250 05c0
000003e0: d4c5 f3bf ecc0 01c0 2e6f debf 6bdb 02c0
000003f0: d07d f2bf f8b3 eabf 01fd e4bf b5d0 e3bf

gc2.bias f4 [32]
-1.9279696 -2.079665 -2.0562341 -2.0366707 -1.9041632 -1.8909341 -1.7961848 -2.0724576
-2.0703263 -1.811756 -1.9556019 -2.0695364 -1.8703884 -2.0215282 -1.9407669 -1.8227017
-1.8722961 -1.8867269 -1.8088514 -1.8715338 -1.8840799 -1.8708502 -1.9577315 -1.9520756
-1.9302025 -1.9160311 -1.8582078 -1.8081887 -1.8432527 -1.9797015 -1.7978543 -2.0223312
00000000: b5c7 f6bf 3b19 05c0 5799 03c0 d058 02c0
00000010: 9fbb f3bf 210a f2bf 62e9 e5bf 25a3 04c0
00000020: 3a80 04c0 9fe7 e7bf 2a51 fabf 4973 04c0
00000030: e368 efbf b860 01c0 0d6b f8bf 4a4e e9bf
00000040: 66a7 efbf 4480 f1bf 7188 e7bf 6b8e efbf
00000050: 8829 f1bf 0578 efbf f296 fabf 9ddd f9bf
00000060: e010 f7bf 8240 f5bf c1d9 edbf ba72 e7bf
00000070: b4ef ebbf dc66 fdbf 1720 e6bf e06d 01c0
