model_weight/1681627266.3681843.pth (torch, 3871 bytes, 4 tensors)

gc1.weight f4 [3, 16]
00000000: 2740 b93f b741 a73f eb0e d03f 3611 a33f
00000010: 10a4 b23f 045f ce3f 669d c03f befa c63f
00000020: b9f1 af3f f2e0 9b3f 6109 ab3f 3455 b53f
00000030: 7ba8 aa3f 3792 bd3f eea8 a93f 4c47 ab3f
00000040: 6b66 d13f 42da c23f aa77 aa3f 5c91 9f3f
00000050: d2e5 a33f f751 b73f af5c c13f f7dd cd3f
00000060: 9d4b 973f ba3c b13f e02b b43f 39ef b13f
00000070: ad25 c63f e045 cc3f c661 c43f 524a a63f
00000080: 4ca5 a33f 8199 a83f 3252 bb3f cdb4 873f
00000090: 248a c03f ea85 c83f cd3f c83f 3d69 bd3f
000000a0: 2d0d ba3f 6fe6 c93f f767 ab3f c70f b93f
000000b0: 124f 9f3f f5bd ba3f 4248 903f c56f b73f
1.4472703 1.306693 1.6254553 1.2739627 1.3956318 1.6122746 1.5048034 1.554527
1.3745643 1.2178023 1.3362237 1.4166627 1.3332666 1.4810246 1.3254678 1.3381133
1.635938 1.5222857 1.3317769 1.2466235 1.280451 1.4321889 1.510641 1.6083363
1.181995 1.3846657 1.407589 1.390113 1.5480248 1.5958824 1.5342338 1.2991431
1.278482 1.3171846 1.4634459 1.0602051 1.5042157 1.5665867 1.564447 1.4797741
1.4535271 1.5773448 1.3391103 1.445794 1.2446005 1.458922 1.1272051 1.4330984

gc1.bias f4 [16]
00000000: 5d24 a33f 52f3 9d3f 141a b03f 0a9a 833f
00000010: 7158 b33f 65e5 ca3f 4a94 a23f 0948 c03f
00000020: d116 af3f b134 c83f 3fff d23f 5b7e bf3f
00000030: 7c45 be3f 234b ad3f 4594 a23f eeed c13f
1.2745472 1.233988 1.3757958 1.0281384 1.4011365 1.5851256 1.2701504 1.5021983
1.3678838 1.564108 1.6484145 1.4960436 1.4864955 1.3538555 1.2701498 1.5150735

gc2.weight f4 [16, 32]
00000000: e530 a3bf 68c0 abbf e54c afbf 5dd8 a4bf
00000010: 68b6 a9bf c51b b3bf f762 c8bf e516 c0bf
00000020: 29c8 c2bf 3ed9 a9bf 898a a3bf 40a9 9bbf
00000030: d415 a1bf 1a35 b3bf e6f5 a2bf ece4 9dbf
00000040: bc2e b6bf 0a70 bcbf 454b b8bf 24bb b9bf
00000050: f680 9bbf 5b56 c2bf d3fb c4bf 05d9 bdbf
00000060: f8be b6bf d65d c7bf faf6 9bbf 046f bbbf
00000070: d260 b8bf 984c c3bf 3ded c2bf 68a4 bebf
00000080: a16d 9bbf 6d41 b5bf a234 bfbf 89d1 b9bf
00000090: 33b2 b1bf b23a 9fbf 1cbd a8bf ffca a5bf
000000a0: 0c55 adbf d913 b6bf 35df bfbf 5955 c5bf
000000b0: fd23 a7bf 1ae8 b1bf 7324 a8bf bc9d c6bf
000000c0: b3cd c4bf 0313 c7bf d3cc b7bf 434f a3bf
000000d0: f8a5 a6bf 4b54 9ebf 0fd5 acbf 84d8 a4bf
000000e0: 9790 b6bf 28fc b6bf 5a6c b8bf 934d a7bf
000000f0: ed99 c7bf 915e a0bf 7411 9bbf bbc0 bcbf
00000100: 2c89 b9bf 030d b0bf 89de bfbf dc30 b6bf
00000110: 54f0 a5bf 01ea c5bf d701 b5bf e0ba a5bf
00000120: 1f7b c7bf 617f a7bf cf35 b2bf 24e5 c2bf
00000130: ab06 b1bf 66f1 aabf 7cdb b7bf 8bd6 9dbf
00000140: 7e0f c7bf ef0c b2bf 2e52 bbbf aa77 b0bf
00000150: defb b9bf d08e a4bf c704 a6bf 9168 b3bf
00000160: c511 a7bf 5092 9ebf 0a5d bfbf eaac b0bf
00000170: 49a6 a9bf 38d7 adbf a08b 9fbf d462 c6bf
00000180: 375e a7bf 5e61 a0bf ab62 b9bf 60ad c4bf
00000190: 8872 a8bf c912 a5bf 0b08 a0bf e540 b5bf
000001a0: 6e0c bfbf c329 a4bf d943 9dbf 8027 c3bf
000001b0: 412f 9dbf 5bdc abbf da5f b2bf 959e c5bf
000001c0: 2f35 a3bf b47d 9ebf d8f4 a4bf 32fa abbf
000001d0: 8fe3 b2bf 23b7 c1bf 39ed 9bbf 5faf b1bf
000001e0: d68d acbf f96f 9fbf 38ea babf 44b5 b7bf
000001f0: 92b5 b2bf 7ba8 a4bf cd97 a8bf 6885 c2bf
00000200: 474b babf 6dea a0bf 4330 a9bf 3a63 acbf
00000210: ed24 afbf 159f c1bf 2d18 c6bf 29db c7bf
00000220: 0f79 abbf dffd c3bf 2639 bcbf a7e2 b6bf
00000230: 0691 a4bf 9504 babf 0d0d bbbf 52e5 b2bf
00000240: 4ed5 bebf 425a a8bf 380e a4bf f9ae b6bf
00000250: 9fec adbf e6ae a0bf 2a6a b6bf 341d a3bf
00000260: ae47 c6bf 990c c3bf f3b7 bdbf d2a2 abbf
00000270: babb c3bf af4b a2bf 7dda 9cbf 0fea a0bf
00000280: 254d b8bf b2e8 bebf 8c3d abbf cdd0 c5bf
00000290: b839 a0bf ece4 a9bf a31b a0bf c777 c2bf
000002a0: 6339 acbf d13b b3bf 0e19 aebf 33e2 a8bf
000002b0: 22b5 a7bf ddf9 9dbf d8ec c7bf 9523 adbf
000002c0: 8539 b8bf 1d80 b1bf 7aa4 a2bf 5f9c c5bf
000002d0: 42f7 bfbf 1766 b8bf 8667 c2bf f449 a6bf
000002e0: b2cb c7bf c1a0 b8bf 3bfe 9bbf 8219 bfbf
000002f0: 70ed 9bbf b0c2 9dbf b806 c7bf 5a4f b1bf
00000300: a66b aebf 13d7 bcbf b9ea c3bf 090d aabf
00000310: 17bc c6bf dfc0 a7bf 660d 9ebf 51f8 9cbf
00000320: 68e0 bebf 5d1d a8bf 6198 b7bf 5cbe a2bf
00000330: cc57 a0bf 6f64 a8bf 6136 a6bf e80f a7bf
00000340: 1b58 b8bf f51b c3bf dd18 babf 12d5 c0bf
00000350: e9ec a2bf bcbc c7bf ca4d c4bf 4ab0 9bbf
00000360: 70b6 b2bf fee6 bcbf 0127 9bbf 677a b4bf
00000370: 9666 c5bf 95de afbf c93b a0bf 89ec abbf
00000380: d9db c3bf 9e06 a9bf 71ac bdbf 6556 c6bf
00000390: eb24 a4bf 7155 b6bf 911a afbf a058 b6bf
000003a0: fc9e acbf e274 b3bf f41a bcbf d416 c3bf
000003b0: 636d a2bf 568d bfbf aad0 c1bf b5a2 a6bf
000003c0: 0883 c0bf 02d2 9fbf f538 c7bf 2c41 a0bf
000003d0: 0651 a1bf 7344 a7bf 5e81 bdbf 6946 c7bf
000003e0: eb12 b1bf afb2 b0bf c5cb afbf e46e 9ebf
000003f0: 3e72 9dbf 06eb a0bf 01af b8bf 2c94 bcbf
-1.2749296 -1.3418093 -1.3695341 -1.2878529 -1.3258791 -1.399285 -1.5655202 -1.5006987
-1.5217334 -1.3269422 -1.2776653 -1.2161026 -1.2584786 -1.400058 -1.2731292 -1.2335486
-1.4233012 -1.4721692 -1.439797 -1.4510236 -1.2148731 -1.5182604 -1.5389351 -1.4831854
-1.4277029 -1.5575511 -1.2184746 -1.4643254 -1.4404547 -1.525775 -1.5228649 -1.4893923
-1.2142831 -1.4160591 -1.4937937 -1.451707 -1.3882507 -1.2439787 -1.3182712 -1.2952574
-1.3541579 -1.4224807 -1.4989992 -1.5416671 -1.3057858 -1.3898957 -1.3136123 -1.5516887
-1.5375274 -1.5552677 -1.4359382 -1.2758564 -1.30194 -1.2369474 -1.350252 -1.2878575
-1.4262875 -1.4295702 -1.4408066 -1.3070549 -1.559385 -1.2528859 -1.2114701 -1.4746317
-1.4494987 -1.3753971 -1.4989787 -1.4233661 -1.2963967 -1.5462037 -1.4141186 -1.2947655
-1.5584449 -1.3085748 -1.3922671 -1.5226178 -1.383016 -1.3354919 -1.4363856 -1.2331098
-1.5551603 -1.3910197 -1.4634454 -1.3786519 -1.4529989 -1.2856083 -1.2970208 -1.4016286
-1.3052298 -1.2388401 -1.4950268 -1.3802769 -1.3253871 -1.3581305 -1.2464485 -1.549891
-1.3075627 -1.2529714 -1.4483236 -1.536541 -1.3159952 -1.2896358 -1.2502455 -1.4160429
-1.4925668 -1.2825245 -1.228633 -1.524643 -1.2280046 -1.3426622 -1.3935502 -1.543902
-1.2750605 -1.2382112 -1.288722 -1.3435729 -1.3975695 -1.5134014 -1.218177 -1.3881644
-1.3480785 -1.2456046 -1.4602728 -1.4352193 -1.3961661 -1.2863916 -1.3171326 -1.5196962
-1.4554223 -1.2571541 -1.3217853 -1.3467782 -1.3683144 -1.5126673 -1.5476128 -1.5613757
-1.3396319 -1.531185 -1.470494 -1.4287919 -1.2856758 -1.4532648 -1.4613358 -1.3976233
-1.4908845 -1.3152544 -1.2816839 -1.4272147 -1.3587836 -1.2553375 -1.4251149 -1.2743287
-1.5490625 -1.523822 -1.4821762 -1.3409064 -1.5291665 -1.2679347 -1.2254177 -1.2571429
-1.4398543 -1.4914763 -1.3378158 -1.5454346 -1.2517614 -1.3272986 -1.2508434 -1.5192803
-1.3455013 -1.400263 -1.3601396 -1.319403 -1.3102152 -1.2341877 -1.5619154 -1.3526484
-1.4392554 -1.3867222 -1.2706444 -1.5438346 -1.4997332 -1.4406155 -1.5187843 -1.2991319
-1.5609038 -1.4424058 -1.218696 -1.4929659 -1.2181835 -1.2325039 -1.5548925 -1.3852341
-1.3626602 -1.4753135 -1.5306007 -1.3285228 -1.552615 -1.3105735 -1.2347839 -1.226328
-1.4912233 -1.3133961 -1.4343377 -1.2714343 -1.2526793 -1.315565 -1.2985345 -1.3051729
-1.4401888 -1.5242907 -1.4538838 -1.5065024 -1.2728549 -1.5604472 -1.5336239 -1.2163174
-1.3961926 -1.4757993 -1.2121278 -1.4099854 -1.5421932 -1.3739802 -1.2518245 -1.343156
-1.5301467 -1.3205144 -1.481825 -1.5495116 -1.2823766 -1.4244825 -1.3679982 -1.4245796
-1.3486018 -1.4020045 -1.4695725 -1.5241342 -1.2689632 -1.4965007 -1.5141804 -1.3018404
-1.5039988 -1.2485964 -1.5564257 -1.2519889 -1.2602851 -1.3067764 -1.4805105 -1.5568362
-1.3833898 -1.380453 -1.373406 -1.2377591 -1.2300489 -1.2571723 -1.4428407 -1.4732718

gc2.bias f4 [32]
00000000: 9821 b3bf 8d87 a0bf 3c2d 9cbf fede b2bf
00000010: e23b bdbf cb19 bebf 0968 a6bf 469d b1bf
00000020: 2434 a2bf 7655 a2bf 4995 a2bf 2d9c b4bf
00000030: 60d9 9fbf 858e a0bf 2773 9fbf 83b4 c4bf
00000040: 1e5d a5bf 97e7 c0bf 83ea 9fbf f003 aabf
00000050: 79d3 c0bf f6b1 a6bf f7fc a5bf 6f2f b7bf
00000060: 7972 9bbf af87 abbf e815 b1bf 901f 9fbf
00000070: d594 bebf b3b2 a5bf 6028 b1bf 72c2 a8bf
-1.3994627 -1.2541367 -1.2201304 -1.3974302 -1.47839 -1.4851621 -1.3000499 -1.3876121
-1.2672162 -1.2682331 -1.2701808 -1.4110161 -1.2488213 -1.2543494 -1.2457017 -1.5367588
-1.2919042 -1.5070676 -1.2493442 -1.3282452 -1.5064536 -1.3023059 -1.2967824 -1.431135
-1.2144309 -1.3400782 -1.383481 -1.2431507 -1.488917 -1.294516 -1.3840446 -1.318434
