model_weight/1681627679.1249413.pth (torch, 3871 bytes, 4 tensors)

gc1.weight f4 [3, 16]
0	0x3fa07cd9	1.25381
1	0xbdd6065c	-0.10450432
2	0x3fbacc1a	1.4593537
3	0x3fb86fbc	1.4409099
4	0x3fb6f578	1.4293661
5	0x3fad22b7	1.3526219
6	0x3fb85391	1.4400502
7	0x3fbdeb34	1.4837403
8	0x3e7c5b44	0.2464419
9	0xbd710620	-0.058843732
10	0x3fc000ee	1.5000284
11	0x3fc6ba33	1.5525573
12	0x3f99aed4	1.2006478
13	0x3fccb732	1.5993407
14	0x3fa52a97	1.2903622
15	0x3fb2bef5	1.3964525
16	0x3fb795ff	1.434265
17	0x3df95248	0.12173897
18	0x3fa501b7	1.2891148
19	0x3fd34094	1.6504083
20	0x3f946035	1.159186
21	0x3fa835ba	1.3141396
22	0x3fc94286	1.5723426
23	0x3f98d1d4	1.1939034
24	0xbdb1548c	-0.08658704
25	0x3e2dce6e	0.16973278
26	0x3fba5424	1.4556928
27	0x3fbcea75	1.4759051
28	0x3f8b5f34	1.0888429
29	0x3fce0813	1.6096214
30	0x3f9c7505	1.2223212
31	0x3fb7d8e1	1.4363061
32	0x3fba8cfa	1.4574273
33	0xbe766b0c	-0.24064273
34	0x3f9c0300	1.2188416
35	0x3fc2be39	1.5214301
36	0x3fb1f606	1.3903205
37	0x3fbfcab0	1.498373
38	0x3fb068f2	1.3782027
39	0x3fcf3b03	1.6189884
40	0xbda844f8	-0.0821628
41	0xbe0aaefe	-0.13543317
42	0x3f9d446c	1.2286506
43	0x3fd278f5	1.6443163
44	0x3f9b2800	1.2121582
45	0x3fb9a69f	1.4503974
46	0x3fb552e7	1.4165925
47	0x3fba7826	1.4567916

gc1.bias f4 [16]
0	0x3fc57c2c	1.5428519
1	0xbddb510c	-0.10708818
2	0x3fcdd2cc	1.6079955
3	0x3faff131	1.3745481
4	0x3fc6b737	1.5524663
5	0x3fbe1aaa	1.4851887
6	0x3fc50013	1.5390648
7	0x3fc78e74	1.5590348
8	0xbe6baf1a	-0.23016015
9	0xbe709d62	-0.23497537
10	0x3fc19fce	1.5126894
11	0x3f9abfe2	1.2089808
12	0x3fc44953	1.5334877
13	0x3fb458b1	1.4089566
14	0x3fc6f42d	1.5543267
15	0x3fbc678f	1.4719104

gc2.weight f4 [16, 32]
0	0xbfa7836b	-1.308698
1	0xbfab8fdd	-1.3403279
2	0xbfca6242	-1.5811236
3	0xbfa379e0	-1.2771568
4	0xbfb1afc5	-1.3881766
5	0xbfccf3bc	-1.6011882
6	0xbfbf7435	-1.4957339
7	0xbfa407c3	-1.2814869
8	0xbfaedd3f	-1.3661269
9	0xbfc281ef	-1.5195903
10	0xbfca96bd	-1.5827252
11	0xbfb562ef	-1.4170817
12	0xbfb6facc	-1.4295287
13	0xbfb0b086	-1.3803871
14	0xbfcbecd9	-1.5931655
15	0xbfabc96c	-1.3420844
16	0xbfc3077f	-1.5236663
17	0xbfafb23c	-1.3726268
18	0xbfbe9b60	-1.4891167
19	0xbfc39e2f	-1.5282649
20	0xbfc6fdcb	-1.5546201
21	0xbfb6874a	-1.4260037
22	0xbfaf3177	-1.368697
23	0xbfcdb58e	-1.6071031
24	0xbfc6120b	-1.5474256
25	0xbfb30a74	-1.3987565
26	0xbfcaa240	-1.5830765
27	0xbfb1bf3b	-1.3886484
28	0xbfa793ab	-1.309194
29	0xbfa34503	-1.2755436
30	0xbfb806af	-1.437704
31	0xbfb8dbe2	-1.4442103
32	0x3e13e4c9	0.14442743
33	0x3b84c5c0	0.004051894
34	0xbcbf39d0	-0.023342997
35	0x3ddd8b1e	0.1081755
36	0xbde81059	-0.11331243
37	0xbe17ba14	-0.14817077
38	0x3db70232	0.089359656
39	0xbc69aa50	-0.014261797
40	0x39c5ac00	0.00037702918
41	0x3e16ca15	0.14725526
42	0x3bf0ee80	0.00735265
43	0xbd0567a4	-0.032569543
44	0x3db8fcb2	0.09032573
45	0xbe2c06ed	-0.16799517
46	0x3decd1a6	0.11563425
47	0x3da65536	0.081217214
48	0x3d34d438	0.0441477
49	0xbe12aafd	-0.1432304
50	0x3da6098a	0.08107288
51	0x3dba626e	0.09100805
52	0x3d386658	0.045019478
53	0x3e0bc7d9	0.13650455
54	0xbe28bcaf	-0.16478227
55	0xbd6b7e00	-0.05749321
56	0x3d3c95a0	0.04604113
57	0xbc7eb070	-0.015544996
58	0x3d70a04c	0.05874662
59	0x3d604c20	0.0547601
60	0x3dd71d12	0.105035916
61	0x3d4033b8	0.046924323
62	0x3ddb954e	0.10721837
63	0xbcbfb0c8	-0.023399726
64	0xbfc4cfd5	-1.5375925
65	0xbfa55369	-1.291608
66	0xbfb8ed30	-1.4447384
67	0xbfafd554	-1.3736978
68	0xbfa4558b	-1.2838606
69	0xbfb06d59	-1.378337
70	0xbfcb8996	-1.5901363
71	0xbfc3214f	-1.524454
72	0xbfb7f4e3	-1.4371608
73	0xbfca2903	-1.5793766
74	0xbfcdf3b6	-1.609
75	0xbfc465a8	-1.5343523
76	0xbfbe4c34	-1.4867005
77	0xbfbeba15	-1.4900538
78	0xbfb545bf	-1.416191
79	0xbfacd7bf	-1.350334
80	0xbfbfa9f3	-1.4973739
81	0xbfb84a3e	-1.4397657
82	0xbfc9b06a	-1.5756962
83	0xbfc34428	-1.5255175
84	0xbfae5976	-1.3621051
85	0xbfaf8d22	-1.3714945
86	0xbfa3739e	-1.2769659
87	0xbfc779ff	-1.5584105
88	0xbfbebbac	-1.4901023
89	0xbfbebbe3	-1.4901088
90	0xbfad0150	-1.3516026
91	0xbfcdf4a9	-1.6090289
92	0xbfba76e6	-1.4567535
93	0xbfc1bd37	-1.5135869
94	0xbfab355e	-1.3375661
95	0xbfbb21e4	-1.4619718
96	0xbfa9af02	-1.3256533
97	0xbfbf0f5c	-1.4926562
98	0xbfa33381	-1.2750093
99	0xbfb383ea	-1.4024632
100	0xbfcbd00d	-1.5922867
101	0xbfc59d42	-1.5438616
102	0xbfc51022	-1.5395548
103	0xbfc31e3b	-1.5243601
104	0xbfa67b95	-1.3006464
105	0xbfbf98bb	-1.4968485
106	0xbfcaf76c	-1.5856757
107	0xbfa7a75a	-1.3097947
108	0xbfb02520	-1.376133
109	0xbfa473c2	-1.2847826
110	0xbfac6b1b	-1.3470186
111	0xbfc4abf7	-1.536498
112	0xbfb6398e	-1.4236314
113	0xbfa73c12	-1.3065207
114	0xbfc23648	-1.5172815
115	0xbfb08235	-1.3789736
116	0xbface3e1	-1.3507043
117	0xbfbebeed	-1.4902016
118	0xbfaf5a9d	-1.3699528
119	0xbfad9d25	-1.3563582
120	0xbfcb7a01	-1.5896608
121	0xbfbb45a0	-1.4630623
122	0xbfc3a623	-1.5285076
123	0xbfa9b6a8	-1.3258867
124	0xbfba1418	-1.4537382
125	0xbfb852fc	-1.4400325
126	0xbfb27cea	-1.3944371
127	0xbfaa189a	-1.3288758
128	0xbfa6dd80	-1.3036346
129	0xbfab277d	-1.3371426
130	0xbfa8de05	-1.3192755
131	0xbfb0c2a4	-1.38094
132	0xbfa687f5	-1.3010241
133	0xbfa501eb	-1.289121
134	0xbf9d4988	-1.2288065
135	0xbfa50d8f	-1.2894763
136	0xbfaf7d85	-1.371018
137	0xbfc75961	-1.5574151
138	0xbfc8edda	-1.5697587
139	0xbf9d960f	-1.2311419
140	0xbfbee280	-1.4912872
141	0xbfc1fcd7	-1.5155286
142	0xbf9e4e21	-1.2367593
143	0xbfa3a2d7	-1.278407
144	0xbfa01782	-1.2507174
145	0xbfc53fc4	-1.5410085
146	0xbfc22bb6	-1.516959
147	0xbfc7c9dd	-1.5608479
148	0xbfc32ae3	-1.5247463
149	0xbfbc5a3b	-1.4715036
150	0xbfc33df3	-1.525328
151	0xbfb0d631	-1.3815366
152	0xbfb279db	-1.3943437
153	0xbfa83ba8	-1.3143206
154	0xbfbb4c6c	-1.4632697
155	0xbfa5f476	-1.2965229
156	0xbfae57f2	-1.3620589
157	0xbfa4b77c	-1.2868495
158	0xbf9d7587	-1.2301491
159	0xbfb3fde4	-1.4061856
160	0xbfc8696e	-1.5657175
161	0xbfad18d2	-1.35232
162	0xbfb103ec	-1.3829322
163	0xbfad725a	-1.3550522
164	0xbfbedac0	-1.4910507
165	0xbfc685ce	-1.5509584
166	0xbfb7e7f5	-1.4367663
167	0xbfc40e6e	-1.5316904
168	0xbfc13f90	-1.5097523
169	0xbfb50361	-1.4141656
170	0xbfaae1b5	-1.335013
171	0xbfbccb73	-1.4749588
172	0xbfd379a8	-1.6521502
173	0xbfbddadb	-1.4832414
174	0xbfc1d364	-1.5142636
175	0xbfd0c790	-1.6310902
176	0xbfb3995b	-1.4031175
177	0xbfc6bf4b	-1.5527128
178	0xbfcf1e99	-1.6181213
179	0xbfbe08cf	-1.4846438
180	0xbfb07e64	-1.3788571
181	0xbfb84e83	-1.439896
182	0xbfc4aeb6	-1.5365818
183	0xbfb478e6	-1.4099395
184	0xbfad2fe0	-1.3530235
185	0xbfc433b5	-1.532828
186	0xbfb1daf4	-1.3894944
187	0xbfbe07a6	-1.4846084
188	0xbfd01f41	-1.6259538
189	0xbfb842a6	-1.439534
190	0xbfd15913	-1.6355308
191	0xbfce6b5c	-1.6126513
192	0xbfbdb0bb	-1.4819559
193	0xbfc43fe6	-1.5332
194	0xbfca764e	-1.5817354
195	0xbfaade1b	-1.3349031
196	0xbfc53a37	-1.5408391
197	0xbfa68345	-1.300881
198	0xbfb3ff9c	-1.4062381
199	0xbfae80e8	-1.3633089
200	0xbfc56250	-1.5420628
201	0xbfc22982	-1.5168917
202	0xbfb920bf	-1.4463118
203	0xbfa4990c	-1.2859206
204	0xbfa03945	-1.2517477
205	0xbfab8acc	-1.3401732
206	0xbfc2edc4	-1.522881
207	0xbfc8bbdb	-1.5682329
208	0xbfb6a453	-1.4268898
209	0xbfb76a45	-1.4329306
210	0xbfa3bfbe	-1.279289
211	0xbfca1133	-1.5786499
212	0xbfa503de	-1.2891805
213	0xbfc51f70	-1.5400219
214	0xbfbb8779	-1.4650718
215	0xbfb76688	-1.4328165
216	0xbfc1ca23	-1.5139812
217	0xbfb8561a	-1.4401276
218	0xbfa92bc9	-1.3216487
219	0xbfc5c013	-1.5449241
220	0xbfc55918	-1.5417814
221	0xbfa09759	-1.2546188
222	0xbfb57759	-1.4177047
223	0xbfb62682	-1.4230502
224	0xbfc40a6d	-1.5315682
225	0xbfa0c313	-1.2559532
226	0xbfb9e137	-1.4521855
227	0xbfb01444	-1.3756185
228	0xbfc30839	-1.5236884
229	0xbfc98c9d	-1.5746037
230	0xbfb8d1d9	-1.443904
231	0xbfc0e623	-1.5070232
232	0xbfaaaa3c	-1.3333201
233	0xbfa436d0	-1.2829227
234	0xbfb50253	-1.4141334
235	0xbfb2f316	-1.3980434
236	0xbfa62271	-1.2979261
237	0xbfc7c013	-1.5605491
238	0xbfb992a9	-1.4497882
239	0xbfc300c7	-1.5234612
240	0xbfc32b38	-1.5247564
241	0xbfab334e	-1.3375032
242	0xbfbcd1b4	-1.4751496
243	0xbfbc15a1	-1.4694101
244	0xbfc57527	-1.5426377
245	0xbfb3fc2a	-1.4061329
246	0xbfb28bde	-1.3948934
247	0xbfb68730	-1.4260006
248	0xbfae49c1	-1.3616258
249	0xbfad7f14	-1.3554406
250	0xbfa09b50	-1.2547398
251	0xbfb8f446	-1.4449546
252	0xbfb99b36	-1.4500492
253	0xbfc17d46	-1.5116355
254	0xbf9fc865	-1.248303
255	0xbfbdee64	-1.4838376

gc2.bias f4 [32]
0	0xbfa27827	-1.2692918
1	0xbfb9d64c	-1.4518523
2	0xbfb32720	-1.3996315
3	0xbfa7c75e	-1.3107717
4	0xbfae79ed	-1.3630959
5	0xbfa50356	-1.2891643
6	0xbfb0ae51	-1.3803197
7	0xbfbf30d6	-1.4936779
8	0xbfab9f9e	-1.3408086
9	0xbfad6f53	-1.3549598
10	0xbfc5dc05	-1.545777
11	0xbfa97a9a	-1.324054
12	0xbfa59d36	-1.2938602
13	0xbfc16408	-1.5108652
14	0xbfc38de6	-1.5277679
15	0xbfb7aade	-1.434902
16	0xbf9f8961	-1.24638
17	0xbfa34307	-1.275483
18	0xbfc62220	-1.5479164
19	0xbfb5e5ab	-1.4210714
20	0xbfbc162e	-1.4694269
21	0xbfadc1dc	-1.3574786
22	0xbfa44a6a	-1.2835209
23	0xbfae073d	-1.3595959
24	0xbfa1acc9	-1.2630855
25	0xbfc455b6	-1.5338657
26	0xbfbfe91a	-1.4993012
27	0xbfb7e00c	-1.4365249
28	0xbfb80195	-1.4375483
29	0xbfb1b60e	-1.3883684
30	0xbfb6cc22	-1.4281046
31	0xbfb9232b	-1.4463857
