model_weight/1681628872.9659894.pth (torch, 3935 bytes, 4 tensors)

gc1.weight f4 [3, 16]
0	0x3edcde33	0.43138275
1	0x3e9d4e86	0.3072397
2	0x3f2a1851	0.66443354
3	0xbd98204f	-0.074280374
4	0x3f430f94	0.76195645
5	0x3f221d9f	0.6332645
6	0x3f2d2381	0.676323
7	0x3ee8f9d5	0.45503107
8	0x3ef6ade9	0.48179558
9	0x3ecbcabf	0.3980312
10	0xbee48277	-0.44630787
11	0x3ecb73f2	0.39736897
12	0x3ed13475	0.40860334
13	0x3ed571e4	0.41688454
14	0x3f253606	0.6453556
15	0x3efac80f	0.48980758
16	0x3ec462e1	0.3835669
17	0x3e9ad52c	0.30240762
18	0x3f1081e2	0.56448185
19	0xbee2160e	-0.4415745
20	0x3f469ecf	0.7758607
21	0x3e9ef4ef	0.31046245
22	0x3efbbd60	0.4916792
23	0x3f3de2ae	0.7417401
24	0x3ef851f3	0.48500022
25	0x3eb41d98	0.35178828
26	0xbe6e5956	-0.23276266
27	0x3ecbe225	0.39820972
28	0x3f26efc0	0.6520958
29	0x3eb708e7	0.3574898
30	0x3ecdf98c	0.40229452
31	0x3f3167b2	0.6929885
32	0x3ebc871d	0.36821833
33	0x3f019133	0.5061218
34	0x3f2eb03a	0.6823765
35	0xbe9a4456	-0.3013026
36	0x3ec5d86b	0.38641676
37	0x3f21f88c	0.6326988
38	0x3f2a4e18	0.6652541
39	0x3f40caab	0.75309247
40	0x3e9e228a	0.30885726
41	0x3ecf7f96	0.40527028
42	0xbf13f633	-0.57797545
43	0x3f3a785c	0.72839904
44	0x3eb5f6cb	0.3553985
45	0x3f22460c	0.63388133
46	0x3ec56be9	0.3855889
47	0x3f4601d3	0.77346534

gc1.bias f4 [16]
0	0x3f390997	0.7228026
1	0x3f26e4a8	0.6519265
2	0x3e8d546c	0.2760347
3	0xbec30518	-0.38089824
4	0x3f338720	0.7012806
5	0x3f223047	0.63354915
6	0x3f28dadd	0.6595896
7	0x3ea1cf0b	0.31603274
8	0x3e8f71d0	0.2801652
9	0x3f2ceb6b	0.6754672
10	0xbec811f9	-0.39076212
11	0x3ead7db7	0.33884975
12	0x3edcaf23	0.4310237
13	0x3f3b551c	0.7317674
14	0x3f1df21c	0.61697555
15	0x3f365f5b	0.7123925

gc2.weight f4 [16, 32]
0	0xbefa0abb	-0.48836312
1	0xbf283537	-0.657062
2	0xbeff2e80	-0.49840164
3	0xbf1d9be2	-0.61565983
4	0xbebc430b	-0.367699
5	0xbee07668	-0.43840337
6	0xbed92283	-0.42409143
7	0xbf050429	-0.5195947
8	0xbf03751f	-0.5135059
9	0xbf2783e1	-0.65435606
10	0xbf0daf8d	-0.55345994
11	0xbf30d45b	-0.6907403
12	0xbf09d455	-0.5383962
13	0xbf1678d5	-0.58778125
14	0xbf22ba5e	-0.63565624
15	0xbf067c5e	-0.5253352
16	0xbee614de	-0.44937795
17	0xbf1b7fb0	-0.6074171
18	0xbf301b23	-0.6879141
19	0xbed48c35	-0.4151322
20	0xbf1db638	-0.6160617
21	0xbf0197dd	-0.5062235
22	0xbece3179	-0.4027212
23	0xbeb10f2b	-0.34581885
24	0xbee89721	-0.45427802
25	0xbef539b7	-0.47895595
26	0xbeeb8f1b	-0.46007618
27	0xbeeaa62c	-0.45829904
28	0xbf176de7	-0.5915207
29	0xbefe7319	-0.49697188
30	0xbed29e69	-0.41136482
31	0xbf148417	-0.58014053
32	0xbf15acf0	-0.58467007
33	0xbf310688	-0.6915059
34	0xbf2bcba7	-0.67107624
35	0xbebe73d2	-0.3719774
36	0xbf0b71d2	-0.5447055
37	0xbf2b781d	-0.66980153
38	0xbf18838f	-0.5957574
39	0xbf17cf10	-0.5930033
40	0xbf0929ef	-0.5357961
41	0xbf13d011	-0.5773936
42	0xbecc5410	-0.39907885
43	0xbf16262d	-0.58652
44	0xbefb30d8	-0.49060702
45	0xbf1c0ded	-0.6095875
46	0xbf0e23bd	-0.5552328
47	0xbf053e41	-0.52048117
48	0xbf2388fc	-0.63880897
49	0xbf0c566e	-0.5481938
50	0xbf090d95	-0.5353635
51	0xbf10485d	-0.5636042
52	0xbf000f96	-0.5002378
53	0xbf230a0f	-0.63687223
54	0xbf1c75de	-0.6111735
55	0xbee03c4c	-0.43796003
56	0xbeddbd5a	-0.43308526
57	0xbed39910	-0.41327715
58	0xbf20976d	-0.6273106
59	0xbf24dd03	-0.6439974
60	0xbf1e7d1d	-0.6190966
61	0xbf2b24ef	-0.6685323
62	0xbec75cc0	-0.3893795
63	0xbeea7f09	-0.45800045
64	0xbf091c90	-0.5355921
65	0xbecf9a49	-0.40547398
66	0xbebffb43	-0.37496385
67	0xbf239e3c	-0.6391332
68	0xbf271bd8	-0.6527686
69	0xbee67615	-0.45011964
70	0xbf0870d8	-0.53297186
71	0xbf0ccee9	-0.5500322
72	0xbf035721	-0.51304823
73	0xbf2c5027	-0.673098
74	0xbef160ae	-0.47144073
75	0xbeb1bd05	-0.34714523
76	0xbed1e045	-0.40991417
77	0xbefe987d	-0.49725714
78	0xbee70482	-0.45120627
79	0xbef1ead3	-0.4724947
80	0xbf2f27ec	-0.6842029
81	0xbf210157	-0.6289267
82	0xbeebc43d	-0.46048155
83	0xbec575b7	-0.38566372
84	0xbee022e9	-0.43776634
85	0xbecf1d56	-0.4045207
86	0xbec1af07	-0.37828848
87	0xbec07874	-0.37591898
88	0xbeb6e21e	-0.3571939
89	0xbec01eb5	-0.37523428
90	0xbf2e1814	-0.6800549
91	0xbf0f1f3a	-0.5590702
92	0xbf1d65d9	-0.6148353
93	0xbf20f1b2	-0.628688
94	0xbf051cfc	-0.5199735
95	0xbf13695d	-0.57582647
96	0xbeeb74ad	-0.45987454
97	0xbefa8339	-0.4892824
98	0xbed72268	-0.42018437
99	0xbf1b4b72	-0.60661995
100	0xbf074d8c	-0.528527
101	0xbeb4ca6c	-0.35310686
102	0xbec4c064	-0.38428032
103	0xbf0ab168	-0.5417695
104	0xbf1d4706	-0.614365
105	0xbeb27c31	-0.34860376
106	0xbf09be28	-0.5380578
107	0xbedcbf3c	-0.4311465
108	0xbeb307c6	-0.34966868
109	0xbebbfd64	-0.3671676
110	0xbf102426	-0.5630516
111	0xbf05d253	-0.52274054
112	0xbf1bb6ca	-0.6082579
113	0xbee4c9e7	-0.4468529
114	0xbedf0870	-0.43561125
115	0xbeea1049	-0.4571555
116	0xbf117043	-0.5681192
117	0xbf14a778	-0.5806804
118	0xbeb30831	-0.34967187
119	0xbf0efc7c	-0.5585401
120	0xbeca9dfa	-0.39573652
121	0xbf132f63	-0.5749418
122	0xbf279bf6	-0.6547235
123	0xbf1110b8	-0.56666136
124	0xbf04861c	-0.51767135
125	0xbec3d891	-0.38251165
126	0xbed98d11	-0.42490438
127	0xbedc7f0b	-0.43065676
128	0xbee3ea28	-0.44514585
129	0xbee2c626	-0.442918
130	0xbf0b608c	-0.54444194
131	0xbec040ad	-0.37549344
132	0xbee2c89d	-0.4429368
133	0xbf296464	-0.6616881
134	0xbecc2eed	-0.39879552
135	0xbef90dc5	-0.48643318
136	0xbf2dfdf8	-0.6796565
137	0xbf2038d9	-0.6258674
138	0xbee96280	-0.45582962
139	0xbf0cbb59	-0.5497337
140	0xbf2e038f	-0.6797418
141	0xbf1cd3a7	-0.61260456
142	0xbed456ff	-0.41472623
143	0xbf16e520	-0.58943367
144	0xbf0631d6	-0.52419794
145	0xbf0c0823	-0.54699916
146	0xbf24bf7e	-0.64354694
147	0xbf0a6cf4	-0.540725
148	0xbef750ae	-0.4830374
149	0xbef06721	-0.4695368
150	0xbec50ad5	-0.38484827
151	0xbee13990	-0.4398923
152	0xbf0474b9	-0.51740605
153	0xbeea59ae	-0.45771545
154	0xbf0cadd2	-0.5495273
155	0xbf289379	-0.65850025
156	0xbf124fa1	-0.57152754
157	0xbf2b4520	-0.6690235
158	0xbedd5fa6	-0.43237036
159	0xbec8c200	-0.3921051
160	0xbeb78fab	-0.35851797
161	0xbedbf066	-0.42956847
162	0xbee17543	-0.44034776
163	0xbf2898bc	-0.65858054
164	0xbf2081f2	-0.6269828
165	0xbf0d1aec	-0.55119205
166	0xbf05ea5d	-0.52310735
167	0xbee08609	-0.4385226
168	0xbeb9541f	-0.36196992
169	0xbf0cd82d	-0.5501736
170	0xbf1bb8ba	-0.60828745
171	0xbf0a996e	-0.54140365
172	0xbecd9240	-0.40150642
173	0xbf15991a	-0.5843674
174	0xbf08b214	-0.53396726
175	0xbeb4c84d	-0.35309067
176	0xbf0ea3a5	-0.5571845
177	0xbec779f6	-0.38960236
178	0xbed61ceb	-0.41818938
179	0xbf26c019	-0.6513687
180	0xbeca7b8c	-0.39547384
181	0xbf2eb499	-0.6824432
182	0xbf0aeadc	-0.54264617
183	0xbf3054f4	-0.6887963
184	0xbeafb3bf	-0.34316823
185	0xbeda3e5d	-0.42625704
186	0xbec3a4c6	-0.3821165
187	0xbeec28c0	-0.4612484
188	0xbf286451	-0.6577807
189	0xbf154901	-0.5831452
190	0xbeb4ff3e	-0.35350984
191	0xbf285208	-0.6575017
192	0xbed12c9e	-0.40854353
193	0xbf14b46a	-0.5808779
194	0xbf12d1ae	-0.57351196
195	0xbef7ae5f	-0.48375222
196	0xbf2384a9	-0.638743
197	0xbf267dae	-0.6503552
198	0xbeffe9bd	-0.49983016
199	0xbf0efcb6	-0.55854356
200	0xbef6b1e5	-0.48182598
201	0xbed19fc3	-0.409422
202	0xbf1fb728	-0.6238885
203	0xbeca1ecc	-0.3947662
204	0xbee275d3	-0.44230518
205	0xbee46110	-0.44605303
206	0xbf2aad4c	-0.6667068
207	0xbf23b2fd	-0.6394499
208	0xbf0d3f02	-0.5517427
209	0xbed764ce	-0.42069095
210	0xbf05decd	-0.5229309
211	0xbeb83597	-0.35978386
212	0xbf1f3e6e	-0.62204635
213	0xbf23d1ee	-0.639922
214	0xbf2e589a	-0.68103945
215	0xbf1dd572	-0.61653817
216	0xbf0cd2a7	-0.5500893
217	0xbf12b7bb	-0.573116
218	0xbf265f08	-0.64988756
219	0xbf24004c	-0.64062953
220	0xbf20b870	-0.6278143
221	0xbf2db6de	-0.6785716
222	0xbf03ad5f	-0.5143642
223	0xbf24f625	-0.64438087
224	0xbf10283c	-0.5631139
225	0xbf29ab2e	-0.66276824
226	0xbf266f55	-0.6501363
227	0xbecdff56	-0.40233868
228	0xbee1f037	-0.44128582
229	0xbef89e83	-0.48558435
230	0xbed0f176	-0.4080922
231	0xbed27c39	-0.411104
232	0xbeb1eda4	-0.34751618
233	0xbedc6652	-0.43046814
234	0xbf238398	-0.6387267
235	0xbee42031	-0.4455581
236	0xbf2082b5	-0.62699443
237	0xbeed58d3	-0.4635683
238	0xbebe1fcf	-0.37133643
239	0xbf074a81	-0.5284806
240	0xbf051b8a	-0.51995146
241	0xbf0a94ea	-0.54133475
242	0xbeca702f	-0.39538714
243	0xbec0b555	-0.37638345
244	0xbf2eecee	-0.68330276
245	0xbf1f3f62	-0.6220609
246	0xbee5f342	-0.44912153
247	0xbf1b1dab	-0.60592145
248	0xbf2b7521	-0.669756
249	0xbef700a8	-0.48242688
250	0xbf295f24	-0.661608
251	0xbf0c31e2	-0.54763615
252	0xbee18513	-0.4404684
253	0xbeff9d20	-0.49924564
254	0xbf16569c	-0.58725905
255	0xbeec534a	-0.46157295

gc2.bias f4 [32]
0	0xbeff1538	-0.49820876
1	0xbeb1fc1b	-0.34762654
2	0xbeacc5b7	-0.33744594
3	0xbf202a29	-0.6256433
4	0xbeeaf456	-0.4588954
5	0xbee64b06	-0.44979113
6	0xbec17738	-0.3778627
7	0xbeb1495e	-0.34626287
8	0xbec7075f	-0.3887281
9	0xbee51583	-0.44742975
10	0xbf13bd26	-0.5771049
11	0xbef7480f	-0.48297164
12	0xbed93393	-0.4242216
13	0xbf26678b	-0.65001744
14	0xbf29405e	-0.6611384
15	0xbefdf774	-0.49602854
16	0xbf2b0b3a	-0.66814005
17	0xbede47e7	-0.43414232
18	0xbf120dba	-0.57052195
19	0xbee3f60d	-0.4452366
20	0xbf0a48e3	-0.54017466
21	0xbef48ce2	-0.47763735
22	0xbf1ae155	-0.6050008
23	0xbed6d9f9	-0.41963175
24	0xbece76eb	-0.40325102
25	0xbf2196d6	-0.6312078
26	0xbf1271f3	-0.5720512
27	0xbf21fbb8	-0.6327472
28	0xbf282bda	-0.6569191
29	0xbebf352c	-0.37345254
30	0xbf268c65	-0.65057975
31	0xbf153b72	-0.5829383
