model_weight/1681629605.965471.pth (torch, 3935 bytes, 4 tensors)

gc1.weight f4 [3, 16]
000000 43 1b b2 3e f7 89 7b be ba dc f6 bd 4b 6d fe 3e
       0.34786424 -0.24564348 -0.12053819 0.4969276
000010 a5 85 3c 3e d9 72 da 3e b9 35 c5 3e 13 98 09 3f
       0.18410356 0.42665747 0.3851755 0.5374767
000020 e6 2e 64 3e 3c eb bf 3d fe ea c4 3e 3f e4 27 3e
       0.22283515 0.09371039 0.38460535 0.16395663
000030 c1 0b 10 3f a9 f9 bb 3e 53 4e c5 3e fe df 46 3e
       0.56267935 0.36713913 0.3853632 0.19421384
000040 a0 b3 88 3e 86 4e e5 3c 00 45 81 bd c4 f6 8a 3e
       0.26699543 0.027991544 -0.06311989 0.27141392
000050 32 20 bb 3e 5d c6 3f 3e ab a4 86 3e bd 7c 84 3e
       0.36548 0.18728013 0.26297507 0.25876418
000060 bf 0f 28 3e 0e b5 cf 3c 9b d8 ff 3e 5c 8f aa 3e
       0.16412257 0.025354888 0.49969944 0.333125
000070 d0 3e fc 3e b9 bb e3 3d 21 80 28 3e c5 ea e5 3e
       0.49266672 0.1111979 0.16455127 0.44905677
000080 93 2d a3 3e ac 33 99 be b8 6d 90 bd 91 2f a3 3e
       0.31870708 -0.29922235 -0.07052177 0.31872228
000090 e9 36 a4 3d 1a df 0c 3e 56 8e 03 3f 2c eb 19 3f
       0.08018286 0.13756981 0.5138906 0.6012447
0000a0 17 24 2a be 64 d3 9d 3d 0e 0e ea 3e f8 fb aa 3e
       -0.1661533 0.07706335 0.45713848 0.33395362
0000b0 eb b9 66 3e b3 6e 07 3f 7b 5b f5 3e ee 5e ec 3d
       0.2253186 0.5290329 0.47921357 0.11541544

gc1.bias f4 [16]
000000 ac 8e 7b 3e f0 c5 7c be 73 49 55 3e 73 f0 85 3e
       0.24566144 -0.24684882 0.208288 0.2616001
000010 ec 7e 5f 3e 29 02 a8 3e 72 c2 f3 3d da e9 02 3e
       0.2182576 0.32814148 0.11902322 0.1278452
000020 53 07 0e be e1 9d 3a 3e 7c 53 8b 3e 6d b4 03 3e
       -0.13869981 0.18224289 0.2721213 0.12861796
000030 6f 4a f3 3e f4 18 d7 3e 72 f3 b1 3e 05 78 3b 3e
       0.47517726 0.42011225 0.34756047 0.18307503

gc2.weight f4 [16, 32]
000000 98 03 c3 be 6c 1e e8 be ff ef e4 be 47 b5 97 be
       -0.3808868 -0.4533571 -0.44714352 -0.2963049
000010 41 ea e5 be fa 72 d9 be 8a ff d0 be 20 8f bf be
       -0.44905284 -0.42470533 -0.4081996 -0.37413883
000020 92 9b d8 be dc c9 c1 be 5c 38 9d be 95 df 9c be
       -0.4230619 -0.3784932 -0.3070706 -0.3063933
000030 16 00 a4 be 5e b0 5e be d0 ac 9f be b6 e8 42 be
       -0.32031316 -0.21746966 -0.31186533 -0.19034085
000040 4f a8 67 be c7 49 86 be d9 41 c1 be d8 13 b8 be
       -0.22622798 -0.26228163 -0.3774555 -0.3595264
000050 94 6b 73 be 4d 67 1b be e5 f5 74 be cd db 66 be
       -0.23771507 -0.15176125 -0.23921926 -0.22544785
000060 e3 ef 21 be b2 54 91 be 75 31 6f be b9 ef c4 be
       -0.15814166 -0.2838493 -0.2335871 -0.38464144
000070 f6 5d d9 be 86 e9 98 be c0 1f af be 01 d2 50 be
       -0.424545 -0.29865664 -0.3420391 -0.2039261
000080 1c 18 46 be d3 49 86 be 1d 55 32 be 52 0a 55 be
       -0.19345134 -0.26228198 -0.1741528 -0.20804718
000090 45 33 ff be a0 76 a4 be a9 8d e3 be 9b 83 2a be
       -0.49843803 -0.32121754 -0.44444016 -0.16651766
0000a0 c7 40 96 be d6 d0 c0 be 02 31 b0 be cb 42 d3 be
       -0.29346296 -0.3765933 -0.3441239 -0.41261896
0000b0 3e 72 7c be da 3f b3 be 5e 08 b6 be 39 49 c4 be
       -0.24652955 -0.35009652 -0.3555326 -0.38337114
0000c0 e6 40 cf be 87 f9 46 be 54 1a 7b be 14 f1 bf be
       -0.404792 -0.19431125 -0.24521762 -0.37488616
0000d0 18 99 72 be e9 c7 dd be a7 a5 b6 be a7 41 3e be
       -0.23691213 -0.43316582 -0.35673258 -0.18579732
0000e0 96 d4 2a be 21 5b 6e be fc 18 39 be ec 47 1d be
       -0.16682658 -0.2327695 -0.18075937 -0.15359467
0000f0 52 27 88 be ba 24 f5 be 01 d7 32 be 57 79 43 be
       -0.265925 -0.47879583 -0.1746483 -0.19089256
000100 ba 81 bf be 31 2b 5f be 7c 8e bf be 6a 58 cc be
       -0.3740366 -0.2179382 -0.37413394 -0.39911205
000110 06 9a 4a be 92 c7 82 be 25 e8 1a be db 3c 6d be
       -0.19785318 -0.25542885 -0.15127619 -0.23167746
000120 27 7c 68 be 62 15 f1 be bc 4b 6f be f9 d0 b8 be
       -0.2270361 -0.47086626 -0.23368734 -0.36096933
000130 94 e9 a0 be 94 31 69 be a3 39 41 be 89 d7 52 be
       -0.31428206 -0.22772819 -0.18869643 -0.20590033
000140 2f 4b 40 be 75 6e 3d be 69 3a d3 be 27 30 e7 be
       -0.1877868 -0.18499167 -0.412555 -0.45153925
000150 35 19 d6 be e8 8c 37 be df 3b 88 be 97 c1 94 be
       -0.41816106 -0.17924845 -0.26608178 -0.29053947
000160 f2 98 5b be 1f 81 48 be 0b 39 22 be 68 ef f2 be
       -0.21445063 -0.19580506 -0.15842073 -0.47448277
000170 3b 45 7c be 70 f8 fa be c8 4a b1 be f2 d3 e4 be
       -0.24635784 -0.49017668 -0.34627366 -0.4469295
000180 cc 07 ae be 24 75 f3 be bb 04 5d be 42 cd 66 be
       -0.33990324 -0.4755031 -0.21583836 -0.22539237
000190 d7 ec ec be 04 0b 74 be 39 17 9e be 66 82 d7 be
       -0.46274444 -0.23832327 -0.30877092 -0.42091674
0001a0 4b 8c 95 be 05 76 fb be 75 9f b9 be da 70 87 be
       -0.29208598 -0.4911348 -0.3625447 -0.26453286
0001b0 9f 28 c2 be 67 16 7c be 26 48 7f be c7 15 a8 be
       -0.37921616 -0.24617921 -0.24929866 -0.32829115
0001c0 13 34 aa be 5b 0c b0 be ab 3e f6 be 78 e7 57 be
       -0.33242854 -0.34384426 -0.48094687 -0.21084392
0001d0 6d 06 90 be 1f 6b 89 be f4 a6 9c be b5 e6 9b be
       -0.28129902 -0.2683954 -0.30596125 -0.30449453
0001e0 99 e6 61 be af a9 af be 8a ae 60 be 87 50 df be
       -0.22060622 -0.34309146 -0.21941581 -0.43616125
0001f0 ff 76 50 be d7 cf ed be 50 1f 87 be 56 d9 c1 be
       -0.20357893 -0.46447632 -0.26391077 -0.37861127
000200 f6 a0 ee be 13 5a 68 be 28 30 d5 be 7b ca 4b be
       -0.46607178 -0.2269061 -0.41638303 -0.19901459
000210 a8 77 d8 be da 31 5d be 7a 01 b8 be 9f cf 86 be
       -0.4227879 -0.21601048 -0.35938627 -0.26330277
000220 e0 c1 55 be 8a 8b b1 be 5b f1 30 be 5f 43 84 be
       -0.20874739 -0.34676772 -0.1727957 -0.2583265
000230 78 d3 7e be bc 12 63 be eb ab 36 be 8d cc de be
       -0.24885356 -0.22175115 -0.17839019 -0.43515435
000240 60 f1 d4 be 03 83 7a be a0 81 d6 be b0 4c d1 be
       -0.41590405 -0.2446404 -0.4189577 -0.4087882
000250 fa c7 47 be c3 23 ee be d1 f7 d3 be b5 a1 f9 be
       -0.19509879 -0.4651166 -0.41400006 -0.48756185
000260 77 e8 38 be 9d ab cf be b8 84 40 be 08 ea dc be
       -0.18057428 -0.40560618 -0.18800628 -0.43147302
000270 ab 96 84 be 64 10 79 be 81 8a cf be d0 17 5b be
       -0.258962 -0.24322659 -0.40535358 -0.21395802
000280 fd 22 84 be bc 32 b0 be eb d9 c0 be f1 59 c9 be
       -0.25807944 -0.34413707 -0.37666258 -0.39326432
000290 32 75 e1 be 2e 98 89 be e6 b5 3c be 00 01 fe be
       -0.44034725 -0.26873916 -0.18428764 -0.49610138
0002a0 7d b8 f6 be 4d 83 65 be 7b ef bc be 2e 30 9b be
       -0.48187628 -0.22413369 -0.3690146 -0.30310196
0002b0 2f 55 f6 be 2b 38 bf be 6f 14 d3 be 0b 08 e4 be
       -0.48111865 -0.3734754 -0.41226527 -0.44537386
0002c0 77 a4 3d be b6 11 45 be 21 96 89 be 31 ec 92 be
       -0.1851977 -0.19245037 -0.26872352 -0.28695825
0002d0 aa e4 1d be 8b d7 cb be e5 68 c5 be 7e 54 d6 be
       -0.1541926 -0.39812884 -0.3855659 -0.41861337
0002e0 a5 77 9f be 8f 2a e8 be f8 d7 b4 be 31 57 3a be
       -0.3114597 -0.4534497 -0.3532102 -0.18197323
0002f0 d3 11 21 be 8e b5 6a be 1e bd 91 be de 08 d1 be
       -0.15729456 -0.2292082 -0.28464597 -0.40827078
000300 37 2f c6 be fa d4 a2 be b6 66 2c be 32 f5 ec be
       -0.38707897 -0.31803113 -0.16836056 -0.4628082
000310 2f fd 81 be 3a 93 8b be 24 f8 be be fb b0 81 be
       -0.25388476 -0.27260762 -0.3729869 -0.25330338
000320 bd 3d 97 be 1e c4 bc be fc 8a 64 be 1c 3c d1 be
       -0.2953929 -0.36868376 -0.22318643 -0.40866172
000330 24 0d af be 9c 71 87 be 20 df 82 be 75 f1 93 be
       -0.34189713 -0.26453865 -0.25560856 -0.28895155
000340 e1 a8 fa be bd 46 d3 be ad 72 2f be d3 79 aa be
       -0.4895697 -0.41264907 -0.17133589 -0.3329607
000350 e5 73 86 be 93 41 ae be 63 3a 85 be 7c 62 78 be
       -0.26260296 -0.34034404 -0.26021108 -0.24256319
000360 db 58 7a be f8 b9 b0 be 6d c7 6e be 48 aa f1 be
       -0.24447958 -0.34516883 -0.23318262 -0.47200227
000370 cd 6c d5 be e1 fa ca be e3 33 39 be 16 63 78 be
       -0.4168457 -0.3964453 -0.180862 -0.24256548
000380 e9 cf 5d be 4b 8e 53 be 72 b5 8b be 5d a3 db be
       -0.21661343 -0.20659749 -0.2728687 -0.42898074
000390 ca 8f c5 be b3 03 42 be 1c 34 fe be 9b 78 bd be
       -0.38586265 -0.18946724 -0.4964913 -0.37006077
0003a0 0f 86 f0 be 53 de 70 be 20 cc b2 be 9b ed b6 be
       -0.4697728 -0.2352231 -0.3492136 -0.35728154
0003b0 e6 7a b8 be f7 61 2a be 8f 62 92 be 2f e5 d1 be
       -0.36031264 -0.16638933 -0.2859082 -0.40995166
0003c0 9f 19 4f be 33 d8 ad be a1 a1 ca be e3 42 b4 be
       -0.20224617 -0.3395401 -0.39576438 -0.3520728
0003d0 db 72 de be c3 03 9b be 36 06 59 be 24 96 ed be
       -0.43447003 -0.30276307 -0.21193776 -0.4640361
0003e0 e7 77 ba be ba 3f 5c be db 07 cc be e5 1e e1 be
       -0.36419603 -0.21508685 -0.39849743 -0.43968883
0003f0 3e 1b d8 be 09 cf 2e be 58 0f df be 9c 9c 58 be
       -0.42208284 -0.17071165 -0.43566394 -0.21153492

gc2.bias f4 [32]
000000 81 5c b8 be d0 0e be be 3a ff a0 be bf 31 26 be
       -0.36008075 -0.37120676 -0.31444722 -0.16229914
000010 81 d9 ff be f0 6a a3 be 33 66 22 be 85 d8 96 be
       -0.4997063 -0.31917524 -0.15859298 -0.29462066
000020 ed 4b f5 be 92 f2 95 be 91 e7 5b be dd a3 c4 be
       -0.4790949 -0.2928663 -0.21475054 -0.38406268
000030 6b db f2 be d6 2d 58 be 46 a7 6f be d2 c5 80 be
       -0.47433028 -0.21111235 -0.23403654 -0.25150925
000040 0d d9 e0 be 4f dc c5 be fd 04 c8 be 41 e3 b1 be
       -0.43915597 -0.38644645 -0.39066306 -0.34743693
000050 f7 5f b5 be a0 71 eb be 4f 3d f0 be 1f d4 6f be
       -0.35424778 -0.45985126 -0.46921775 -0.23420762
000060 2c 74 db be c8 ad f3 be a0 ec e6 be 18 58 b3 be
       -0.4286207 -0.47593522 -0.45102406 -0.35028148
000070 27 0b 8d be 04 27 98 be fa e2 a5 be c7 7b db be
       -0.2754757 -0.29717267 -0.32399732 -0.42867872
