model_weight/1681629833.6374965.pth (torch, 3935 bytes, 4 tensors)

gc1.weight f4 [3, 16]
0	0x3fa78a24	1.3089032
1	0x3f964ed0	1.1742802
2	0x3f9ee44b	1.241342
3	0xbf6e4a92	-0.93082535
4	0x3fbd9a35	1.4812685
5	0xbeaba5e8	-0.33525014
6	0x3fa1cee2	1.2641261
7	0x3f87a048	1.0595789
8	0x3fb8d313	1.4439415
9	0x3f8ebb89	1.1150981
10	0x3f8e90ed	1.1137978
11	0x3f93310b	1.1499342
12	0x3f867ee2	1.0507472
13	0x3fc42314	1.5323205
14	0x3f9a51a3	1.2056164
15	0x3f932aa5	1.1497389
16	0x3fa0120c	1.2505507
17	0x3f984fd0	1.1899357
18	0x3f8f3023	1.1186565
19	0xbf80b35d	-1.0054737
20	0x3fa7024b	1.3047575
21	0x3f0d93c2	0.55303586
22	0x3f855eac	1.0419517
23	0x3f9f4039	1.2441474
24	0x3f9fb314	1.2476525
25	0x3fa174b5	1.2613741
26	0x3f9359a8	1.1511736
27	0x3fb96e73	1.4486831
28	0x3f932370	1.149519
29	0x3fa14da4	1.2601819
30	0x3f8aaa16	1.0833156
31	0x3fa66519	1.2999603
32	0x3f9874ea	1.1910679
33	0x3fa94a4f	1.3225802
34	0x3f85a267	1.0440186
35	0xbf941b91	-1.1570913
36	0x3fb3999d	1.4031254
37	0xbe2db1fc	-0.16962427
38	0x3f9c166b	1.2194341
39	0x3fac8ea2	1.3481028
40	0x3f99bd5c	1.2010913
41	0x3f987222	1.190983
42	0x3fb13b25	1.3846174
43	0x3f99f130	1.202673
44	0x3f9eeaf4	1.2415452
45	0x3f951103	1.1645817
46	0x3fa64912	1.2991049
47	0x3fa90b48	1.3206568

gc1.bias f4 [16]
0	0x3f664445	0.8994792
1	0x3f9e0474	1.2345109
2	0x3f8c4689	1.0959026
3	0xbfb4d76b	-1.412824
4	0x3f93d554	1.1549478
5	0xbf1c67c9	-0.61095864
6	0x3f88eb85	1.0696875
7	0x3fac197d	1.3445278
8	0x3f94f25d	1.1636463
9	0x3f9d1698	1.227252
10	0x3faedd90	1.3661366
11	0x3fbeb98a	1.4900372
12	0x3f89cd18	1.0765715
13	0x3fc40dda	1.5316727
14	0x3f8cb6cc	1.0993285
15	0x3fa35836	1.2761295

gc2.weight f4 [16, 32]
0	0xbf918b70	-1.1370678
1	0xbf8d3b5f	-1.1033744
2	0xbfa990a0	-1.3247261
3	0xbfad7dfd	-1.3554074
4	0xbfa093e3	-1.2545131
5	0xbfa2380d	-1.2673355
6	0xbfae1276	-1.3599384
7	0xbf91f9a3	-1.1404308
8	0xbf9b849b	-1.2149843
9	0xbf8b52c6	-1.0884635
10	0xbf944d86	-1.1586158
11	0xbf90f1bb	-1.132377
12	0xbfb6fed8	-1.4296522
13	0xbfb458f0	-1.4089642
14	0xbf8a7291	-1.0816213
15	0xbf9c6f1c	-1.2221408
16	0xbf9446ec	-1.1584144
17	0xbf9c8748	-1.2228785
18	0xbfafe387	-1.3741311
19	0xbf9182da	-1.1368058
20	0xbf97fcf1	-1.1874067
21	0xbfb74654	-1.4318337
22	0xbf8d300b	-1.1030287
23	0xbfb4fd39	-1.4139777
24	0xbfb14a63	-1.3850826
25	0xbf8d3ad7	-1.1033581
26	0xbfaa78f1	-1.3318158
27	0xbf96df96	-1.1786983
28	0xbfa6146c	-1.2974982
29	0xbfadc124	-1.3574567
30	0xbf9a15d3	-1.203791
31	0xbf8f1c19	-1.118045
32	0xbfa35a5d	-1.2761952
33	0xbfa497ec	-1.2858863
34	0xbf92e2aa	-1.1475422
35	0xbfac092c	-1.3440299
36	0xbf946c55	-1.159556
37	0xbfa51286	-1.2896278
38	0xbfadd7ea	-1.3581517
39	0xbf94da49	-1.1629115
40	0xbfaa2d77	-1.3295125
41	0xbf995226	-1.1978195
42	0xbf9d8716	-1.230685
43	0xbf936251	-1.1514379
44	0xbf9b0816	-1.2111843
45	0xbfa8ea2f	-1.3196467
46	0xbfa6e033	-1.303717
47	0xbfa14a0a	-1.260072
48	0xbfab063f	-1.3361281
49	0xbfaa0e50	-1.3285618
50	0xbfaf57bd	-1.3698651
51	0xbf8c77fe	-1.0974119
52	0xbfb689cb	-1.4260801
53	0xbfb5f5e7	-1.4215668
54	0xbf8ca419	-1.0987579
55	0xbfb692b8	-1.4263525
56	0xbf8c7c34	-1.0975404
57	0xbf9f03a7	-1.242299
58	0xbfae4b66	-1.361676
59	0xbfb2702a	-1.394048
60	0xbfa04639	-1.252143
61	0xbfa9b3f1	-1.3258039
62	0xbf9132b4	-1.1343598
63	0xbfaad212	-1.3345358
64	0xbf8df65c	-1.1090808
65	0xbfb173c1	-1.386345
66	0xbfac9c30	-1.3485165
67	0xbf96c285	-1.1778113
68	0xbfb1adc2	-1.3881152
69	0xbfab9b36	-1.3406742
70	0xbf96739b	-1.175403
71	0xbf96e7fc	-1.1789546
72	0xbf8fc279	-1.1231223
73	0xbfaa2bf9	-1.3294669
74	0xbf9e608a	-1.2373211
75	0xbfb21925	-1.3913924
76	0xbf9f51bc	-1.2446818
77	0xbf93d425	-1.1549116
78	0xbfb391f8	-1.4028921
79	0xbf8ad900	-1.0847473
80	0xbfa1fe72	-1.2655776
81	0xbf986055	-1.1904398
82	0xbfaa09e2	-1.3284266
83	0xbfb33cc9	-1.4002925
84	0xbf9f092b	-1.2424673
85	0xbf8e2f1a	-1.1108124
86	0xbf92d9fc	-1.1472774
87	0xbfa050aa	-1.2524617
88	0xbfa3d2c2	-1.2798693
89	0xbfaf010b	-1.3672193
90	0xbfa58681	-1.2931672
91	0xbfb14c3f	-1.3851393
92	0xbfa80467	-1.3126343
93	0xbf90124b	-1.1255583
94	0xbf97783c	-1.1833568
95	0xbfa7849e	-1.3087347
96	0xbfa91e29	-1.3212329
97	0xbf9c3091	-1.2202321
98	0xbfb1d82d	-1.3894097
99	0xbf8f224d	-1.1182343
100	0xbf959abd	-1.1687847
101	0xbfa0fc00	-1.2576904
102	0xbfa699f6	-1.3015735
103	0xbf8ffd5f	-1.1249198
104	0xbf9df9da	-1.2341874
105	0xbf94fc9b	-1.1639589
106	0xbf989ec7	-1.1923455
107	0xbf8c031d	-1.093845
108	0xbf9ba23d	-1.2158886
109	0xbf9495d5	-1.1608225
110	0xbf95be17	-1.1698636
111	0xbfaaf92d	-1.3357292
112	0xbf939422	-1.1529582
113	0xbf9e3bf9	-1.2362052
114	0xbf9d0f47	-1.2270287
115	0xbf8b3a0f	-1.0877093
116	0xbf978aa0	-1.183918
117	0xbf9e00a0	-1.2343941
118	0xbfa4edf0	-1.2885113
119	0xbf9fea70	-1.249342
120	0xbf9a2a50	-1.2044163
121	0xbfa642e2	-1.2989161
122	0xbf98ed65	-1.1947447
123	0xbfa257fc	-1.2683101
124	0xbf9400e5	-1.1562773
125	0xbfa87c76	-1.3162982
126	0xbf9e0079	-1.2343894
127	0xbf9cf597	-1.2262448
128	0xbfa9673e	-1.3234632
129	0xbfadadc0	-1.3568649
130	0xbf902670	-1.126173
131	0xbfb416b7	-1.4069432
132	0xbfaecd4b	-1.36564
133	0xbf97781f	-1.1833533
134	0xbfb70af0	-1.4300213
135	0xbf930bdc	-1.1487994
136	0xbf98b6cb	-1.1930784
137	0xbfa87a0d	-1.3162247
138	0xbfa0457c	-1.2521205
139	0xbf9390b4	-1.1528535
140	0xbf8dffde	-1.109371
141	0xbf91fb5b	-1.1404833
142	0xbfa2bb8f	-1.2713488
143	0xbfad1171	-1.3520948
144	0xbfa340f5	-1.2754198
145	0xbfaf04d7	-1.3673352
146	0xbf97183c	-1.1804271
147	0xbf8d691e	-1.1047704
148	0xbfb56286	-1.4170692
149	0xbfa879a4	-1.3162122
150	0xbf94354d	-1.1578766
151	0xbfa99180	-1.3247528
152	0xbfa0d473	-1.2564834
153	0xbfa29817	-1.2702664
154	0xbfb23fab	-1.392568
155	0xbf96d3b1	-1.1783353
156	0xbfaa19c8	-1.3289118
157	0xbf980438	-1.1876287
158	0xbfa88937	-1.3166875
159	0xbf9bf0e6	-1.2182891
160	0xbfa6daa4	-1.3035474
161	0xbf9c9925	-1.2234236
162	0xbf90d401	-1.1314698
163	0xbf8d8bd7	-1.1058301
164	0xbf8e56ef	-1.112028
165	0xbf8b22bc	-1.0869975
166	0xbf8b7958	-1.0896406
167	0xbf9bb2ae	-1.2163904
168	0xbf930148	-1.1484766
169	0xbf91bb68	-1.1385317
170	0xbfa3298a	-1.2747052
171	0xbf8ac9b6	-1.0842807
172	0xbfb67752	-1.4255164
173	0xbf936745	-1.151589
174	0xbf9ca2d2	-1.2237189
175	0xbfa49060	-1.285656
176	0xbfab63c1	-1.3389817
177	0xbfa79147	-1.309121
178	0xbfa23835	-1.2673403
179	0xbf8b0bc1	-1.0862962
180	0xbf95373d	-1.1657482
181	0xbfad745a	-1.3551133
182	0xbfb2e803	-1.3977054
183	0xbfab6dab	-1.3392843
184	0xbf935e1f	-1.1513098
185	0xbfb3862b	-1.402532
186	0xbf8ad0d4	-1.0844979
187	0xbfad1e49	-1.3524867
188	0xbfa734fc	-1.3063045
189	0xbfab0846	-1.33619
190	0xbf939eb4	-1.1532807
191	0xbfb225ad	-1.3917748
192	0xbfa1bcf6	-1.2635791
193	0xbf91076e	-1.1330392
194	0xbf8f6162	-1.1201594
195	0xbf98ce65	-1.1937987
196	0xbfac9ac3	-1.348473
197	0xbf9d9ea4	-1.2314038
198	0xbfa74e68	-1.3070803
199	0xbf8dda0a	-1.1082165
200	0xbfa0f703	-1.2575382
201	0xbfb32f61	-1.3998834
202	0xbfb523f0	-1.4151592
203	0xbf8b851d	-1.0899998
204	0xbf8b71cd	-1.0894104
205	0xbf9ab0a4	-1.2085156
206	0xbf977e79	-1.1835471
207	0xbf8d4dd7	-1.103938
208	0xbfa796c1	-1.3092881
209	0xbf8b7711	-1.0895711
210	0xbf8ef299	-1.1167785
211	0xbfaabe05	-1.3339239
212	0xbfa0a927	-1.2551621
213	0xbfa662e7	-1.2998933
214	0xbfb11b6d	-1.3836495
215	0xbfb10691	-1.3830129
216	0xbf9dd6e1	-1.2331201
217	0xbfa52979	-1.2903281
218	0xbf8e49f6	-1.1116321
219	0xbfb1a06a	-1.387708
220	0xbf9f79a0	-1.2458992
221	0xbfb4a98a	-1.4114239
222	0xbf935565	-1.1510435
223	0xbfa1f4d9	-1.2652847
224	0xbfa834e5	-1.3141142
225	0xbfa1cbf9	-1.2640373
226	0xbf9f7787	-1.2458352
227	0xbf993b4b	-1.197122
228	0xbf9f8c7c	-1.2464747
229	0xbf9ce4c5	-1.2257315
230	0xbfac304e	-1.3452241
231	0xbf9be479	-1.2179099
232	0xbf9e0834	-1.2346253
233	0xbfada111	-1.3564779
234	0xbf8e8b91	-1.1136342
235	0xbfadffa7	-1.3593644
236	0xbfb0c174	-1.3809037
237	0xbf95bf75	-1.1699053
238	0xbfa8249d	-1.3136173
239	0xbfae0690	-1.3595753
240	0xbf8d5a45	-1.1043173
241	0xbfaa817b	-1.3320764
242	0xbfab97b3	-1.340567
243	0xbfb18fa5	-1.3871962
244	0xbfb7ab4a	-1.4349148
245	0xbf8d06b9	-1.1017677
246	0xbf8e403f	-1.1113356
247	0xbf8df292	-1.1089652
248	0xbf9bc39a	-1.2169068
249	0xbfb66b4c	-1.4251494
250	0xbfab1bac	-1.336782
251	0xbfb3383c	-1.4001536
252	0xbfb04c43	-1.3773273
253	0xbfa46b48	-1.284524
254	0xbfa5c892	-1.2951834
255	0xbfaec636	-1.3654239

gc2.bias f4 [32]
0	0xbfaf01c3	-1.3672413
1	0xbf9eb3f5	-1.2398669
2	0xbf9506b4	-1.1642671
3	0xbfb47667	-1.4098634
4	0xbfb681ee	-1.4258401
5	0xbfb26a7d	-1.3938748
6	0xbfb2ee43	-1.3978962
7	0xbf999f47	-1.2001733
8	0xbf9af8aa	-1.2107136
9	0xbf95a58e	-1.1691148
10	0xbfb2b2eb	-1.3960851
11	0xbfb20894	-1.3908868
12	0xbfa3d044	-1.2797933
13	0xbfb04cc0	-1.3773422
14	0xbfb6768e	-1.425493
15	0xbf9b6835	-1.2141176
16	0xbfaad711	-1.3346883
17	0xbfa616e0	-1.2975731
18	0xbf9a4a38	-1.20539
19	0xbfabfdcc	-1.3436828
20	0xbf9bc9cb	-1.2170957
21	0xbfafba1c	-1.3728671
22	0xbfa9ff64	-1.3281064
23	0xbfa84681	-1.3146516
24	0xbfb4590f	-1.4089679
25	0xbfa852dc	-1.3150287
26	0xbfb2ac11	-1.395876
27	0xbfb2f7e5	-1.3981901
28	0xbf9a1cce	-1.204004
29	0xbfb28ef0	-1.3949871
30	0xbfa8de88	-1.3192911
31	0xbfa3cd54	-1.2797036
