model_weight/SRGCAE_ER_SG.pth (torch, 3871 bytes, 4 tensors)

gc1.weight f4 [3, 16]
000000 d0 e0 f4 be cf 00 ca be f8 53 55 3f 8b 99 2c bf
       -0.47827768 -0.39453742 0.8333125 -0.6742179
000010 ba 1e 4b bf bd f0 3b 3f d1 05 bd be cc d8 44 3f
       -0.7934376 0.7341421 -0.369185 0.76893306
000020 f1 c7 8d bf f9 ca 8f bf 14 86 39 bf 85 f1 4b bf
       -1.1076642 -1.1233817 -0.7247021 -0.79665405
000030 86 7d 70 bf e7 45 78 bf af bb 0c bf c1 2d 18 3f
       -0.93941534 -0.9698166 -0.5497388 0.59444815
000040 e5 57 69 3e 42 19 62 3f 29 d1 69 3f 7f 00 8b bf
       0.22787435 0.8831979 0.9133478 -1.0859526
000050 bb aa 4c bf b8 0d 55 3f c9 3a 44 3f db cf 7c 3f
       -0.79948014 0.8322406 0.766522 0.9875466
000060 b7 f6 41 bf 67 f9 57 bf 60 34 1a bf 52 a3 60 bf
       -0.7576708 -0.8436493 -0.6023617 -0.8774921
000070 5f 92 71 bf d1 9d 42 bf 69 09 2d bf 7c cf 27 3f
       -0.9436397 -0.7602206 -0.67592484 0.6555097
000080 95 dd 3f bf 71 1b ff 3e 3b e1 80 3f 9c 7e 4e bf
       -0.7494748 0.49825624 1.0068735 -0.8066194
000090 f2 29 2b bf e0 ba 87 3f 80 09 c8 be 8f 1b 83 3f
       -0.6686088 1.0603905 -0.39069748 1.0242785
0000a0 83 73 3e bf 7c 9f 46 bf 80 6c 0c bf 8e f0 57 bf
       -0.74395007 -0.77587104 -0.5485306 -0.8435143
0000b0 a4 ee 3d bf 62 0d 92 bf da d2 49 bf 4f cc 61 3f
       -0.7419226 -1.1410334 -0.7883736 0.88202375

gc1.bias f4 [16]
000000 47 01 97 3f c1 6a 84 3f f9 c8 61 3f b3 d6 48 3f
       1.1797265 1.0345079 0.88197285 0.78452605
000010 51 46 8b 3f 4a 7a 63 3f 8d b2 4f 3f a5 00 7b 3f
       1.0880834 0.88858473 0.8113182 0.9804786
000020 20 bf 60 3f d5 1b 7a 3f 52 dd 77 3f 9e bf 52 3f
       0.87791634 0.9769872 0.96822083 0.82323635
000030 06 80 9b 3f 90 f8 8d 3f 5b bc 62 3f 78 e6 5c 3f
       1.2148445 1.109148 0.8856866 0.8628917

gc2.weight f4 [16, 32]
000000 bb 8f 8b bf 79 4b 50 bf 6c 20 7b bf 37 10 53 bf
       -1.0903238 -0.8136516 -0.98096347 -0.82446617
000010 70 f5 94 bf 59 c0 5f bf 4e f4 68 bf 87 5f 6f bf
       -1.1637402 -0.87402874 -0.9099778 -0.9350514
000020 be 49 94 bf ff e1 53 bf 90 10 7e bf 18 c2 81 bf
       -1.1585004 -0.8276672 -0.9924402 -1.0137358
000030 5f cf 77 bf 91 a2 85 bf 73 dc 51 bf 1e 23 87 bf
       -0.968008 -1.0440236 -0.81977004 -1.0557592
000040 6d 2b 94 bf 8a ce 69 bf 91 3f 81 bf cb 9d 6c bf
       -1.1575752 -0.9133078 -1.0097524 -0.9242827
000050 f1 80 8c bf d9 0c 82 bf e6 7e 69 bf 80 b2 64 bf
       -1.097685 -1.0160171 -0.91209257 -0.8933487
000060 8b 22 82 bf e2 71 7b bf 5d ad 6f bf e1 69 82 bf
       -1.0166792 -0.98220646 -0.93623906 -1.0188562
000070 af 22 58 bf 3a bb 70 bf e7 67 82 bf 2e 05 6c bf
       -0.8442792 -0.94035685 -1.0187958 -0.92195404
000080 a7 71 90 bf 2b 3b 57 bf ce e9 6d bf b7 63 7d bf
       -1.1284684 -0.8407466 -0.9293488 -0.9898028
000090 46 ba 83 bf 10 e2 7a bf 43 b0 83 bf 0e cc 66 bf
       -1.0291221 -0.98001194 -1.0288166 -0.9015511
0000a0 b3 7b 65 bf e6 9f 6a bf 20 2a 81 bf bc 61 71 bf
       -0.89641875 -0.91650236 -1.009098 -0.94289756
0000b0 37 85 6d bf 7b cd 6f bf a1 e4 7f bf 6e 7d 79 bf
       -0.92781395 -0.93672913 -0.99958235 -0.97457016
0000c0 a0 21 63 bf 5d db 73 bf 37 54 85 bf b7 13 92 bf
       -0.8872318 -0.95256597 -1.0416325 -1.1412266
0000d0 f9 b8 85 bf f4 7c 87 bf 26 0f 5f bf ad e8 7f bf
       -1.0447074 -1.0585008 -0.8713249 -0.9996441
0000e0 97 65 5a bf 06 7d 55 bf c6 24 84 bf 59 d1 8c bf
       -0.85311264 -0.83393896 -1.0323722 -1.1001388
0000f0 b9 7f 83 bf 82 de 90 bf 6e 8d 67 bf 88 e9 76 bf
       -1.0273353 -1.1317904 -0.9045018 -0.9645009
000100 d2 88 7a bf 40 fc 80 bf 3f 20 64 bf fd d6 52 bf
       -0.9786502 -1.007698 -0.89111704 -0.82359296
000110 d3 bd 81 bf 83 5f 90 bf ed 09 53 bf ab bc 8e bf
       -1.0136055 -1.1279148 -0.8243702 -1.1151327
000120 86 2e 58 bf ce 8b 91 bf bc 59 76 bf 1d 2d 56 bf
       -0.8444599 -1.137079 -0.96230674 -0.8366259
000130 cf 6e 78 bf e0 f0 54 bf de 37 58 bf f4 77 6a bf
       -0.9704408 -0.83180046 -0.84460247 -0.91589284
000140 e4 41 8a bf 54 ed 88 bf d5 35 93 bf 1f e4 93 bf
       -1.0801358 -1.0697427 -1.1500803 -1.1553992
000150 bc 39 6b bf ef 05 92 bf c1 95 78 bf 26 50 53 bf
       -0.9188497 -1.1408061 -0.97103506 -0.8254417
000160 f2 79 5c bf c3 80 7a bf 34 4b 6c bf 3c 56 64 bf
       -0.86123574 -0.97852725 -0.9230225 -0.89194083
000170 1a c2 56 bf 5f 8c 6a bf d8 8a 5d bf 5a c2 5d bf
       -0.83889925 -0.9162044 -0.86539984 -0.8662468
000180 f1 c9 8c bf 1d 7d 5e bf 2a 47 92 bf 2c eb 7a bf
       -1.0999128 -0.8690966 -1.1427968 -0.98015094
000190 71 af 70 bf 1f 9a 85 bf 61 09 7f bf 9e a8 91 bf
       -0.940177 -1.0437659 -0.99623686 -1.1379583
0001a0 59 0c 65 bf e5 e7 8b bf c3 e5 52 bf 53 48 93 bf
       -0.89471966 -1.0930144 -0.8238184 -1.1506447
0001b0 15 d4 8c bf 1c 51 6c bf ce b3 58 bf ab c9 55 bf
       -1.1002222 -0.92311263 -0.8464936 -0.83510846
0001c0 15 2a 79 bf fd 46 63 bf c8 7e 5e bf f1 08 83 bf
       -0.9732984 -0.88780195 -0.869122 -1.0237104
0001d0 98 3d 55 bf 43 9a 82 bf 69 c7 5b bf b7 2f 83 bf
       -0.8329711 -1.0203327 -0.8585115 -1.0248936
0001e0 0d e8 75 bf 10 2d 83 bf f2 0a 70 bf 3c 76 8b bf
       -0.96057206 -1.0248127 -0.937667 -1.0895457
0001f0 bd 2f 8e bf 39 0b 84 bf 9a 3f 91 bf 7d 96 75 bf
       -1.1108319 -1.0315925 -1.1347535 -0.9593275
000200 15 e1 7e bf 05 d9 64 bf de 1f 63 bf 3e ab 89 bf
       -0.995622 -0.89393646 -0.887205 -1.0755384
000210 46 b8 64 bf 36 fb 83 bf da 16 88 bf f5 c5 65 bf
       -0.8934368 -1.0311038 -1.0631974 -0.89755183
000220 01 c3 8d bf 24 7f 8e bf c4 a6 84 bf b3 6d 6d bf
       -1.1075135 -1.113255 -1.0363393 -0.9274551
000230 ac 7f 8a bf f3 0a 82 bf d9 97 58 bf 19 3d 70 bf
       -1.0820212 -1.0159591 -0.846067 -0.9384323
000240 f7 81 76 bf 53 63 65 bf 46 07 87 bf fe f9 84 bf
       -0.9629206 -0.8960468 -1.0549095 -1.0388792
000250 cb 24 69 bf f7 51 86 bf f7 20 59 bf f1 9b 55 bf
       -0.91071767 -1.0493764 -0.84815925 -0.8344107
000260 43 6b 5b bf 52 9a 77 bf 0f ef 89 bf fc a3 74 bf
       -0.85710543 -0.9671985 -1.077608 -0.9556272
000270 1f 81 58 bf 57 76 85 bf eb f6 8e bf 10 89 7f bf
       -0.84572023 -1.042674 -1.1169103 -0.99818516
000280 3d 35 53 bf c3 24 66 bf a9 2f 77 bf 14 93 5f bf
       -0.8250311 -0.89899844 -0.965571 -0.873338
000290 a2 b3 66 bf 28 70 8d bf 2b f6 55 bf ac e6 77 bf
       -0.9011785 -1.1049852 -0.8357875 -0.9683635
0002a0 ee 33 8e bf d7 97 88 bf 8a e4 7c bf bb 69 62 bf
       -1.1109598 -1.0671338 -0.9878622 -0.8844258
0002b0 72 9d 76 bf 99 1c 56 bf 38 0a 67 bf 78 26 58 bf
       -0.9633399 -0.83637387 -0.9024997 -0.844337
0002c0 00 d6 5d bf ed e0 87 bf 88 a4 8c bf 1b b5 5a bf
       -0.86654663 -1.0615517 -1.0987711 -0.85432595
0002d0 76 a2 7b bf 6d a0 6c bf bb 10 52 bf e0 66 7c bf
       -0.9829477 -0.9243229 -0.8205678 -0.98594475
0002e0 7e cf 91 bf 48 1d 8b bf 1a 38 66 bf c8 35 60 bf
       -1.1391447 -1.0868311 -0.89929354 -0.87582064
0002f0 b7 58 5c bf eb 42 8d bf 65 c0 8a bf 8a 43 85 bf
       -0.8607287 -1.1036047 -1.0839964 -1.0411236
000300 25 f6 8b bf 29 dd 7e bf cb 13 66 bf d1 73 8a bf
       -1.0934492 -0.99556214 -0.8987395 -1.0816594
000310 7d 35 5c bf cb 24 89 bf 24 2a 57 bf 52 3f 88 bf
       -0.86019117 -1.0714353 -0.84048676 -1.0644324
000320 b1 7d 80 bf 4d 6c 7b bf 74 31 95 bf 5d 8f 68 bf
       -1.0038358 -0.9821213 -1.1655717 -0.90843755
000330 f2 ac 80 bf f3 fa 92 bf e9 e7 74 bf a0 14 5a bf
       -1.0052779 -1.1482834 -0.95666367 -0.8518772
000340 e6 e8 7a bf 6e 56 91 bf e4 90 5e bf 5e d7 51 bf
       -0.98011625 -1.1354501 -0.86939836 -0.8196925
000350 b6 d4 6d bf d6 12 66 bf 35 ca 93 bf 1a 52 8b bf
       -0.92902696 -0.8987249 -1.1546084 -1.088443
000360 8b 20 88 bf dc bb 79 bf a2 7e 5a bf cc c6 80 bf
       -1.0634931 -0.97552276 -0.85349476 -1.0060668
000370 fc 3b 79 bf 10 22 8a bf af 40 8d bf db 76 88 bf
       -0.97357154 -1.0791645 -1.1035365 -1.0661272
000380 52 98 5a bf 17 39 82 bf 97 89 5b bf a0 84 84 bf
       -0.8538867 -1.0173672 -0.8575682 -1.0352974
000390 87 fe 84 bf eb 6c 54 bf 3c 7d 52 bf 1f e7 92 bf
       -1.0390176 -0.82978696 -0.8222234 -1.1476783
0003a0 e6 52 7f bf 4a 36 78 bf 08 78 54 bf b0 50 78 bf
       -0.9973587 -0.9695784 -0.82995653 -0.9699812
0003b0 4f 98 81 bf cb da 5d bf ab d5 85 bf 6f f5 83 bf
       -1.0124606 -0.86661977 -1.0455831 -1.0309275
0003c0 b1 1b 7f bf 8f 5a 61 bf 15 62 6c bf 17 1b 6b bf
       -0.9965163 -0.88028806 -0.9233716 -0.9183821
0003d0 d2 a0 61 bf 12 83 58 bf 34 92 82 bf ae ae 94 bf
       -0.8813602 -0.84575 -1.0200868 -1.1615808
0003e0 27 9e 90 bf 6d bc 66 bf 19 0e 73 bf 6e 97 5a bf
       -1.1298264 -0.90131265 -0.94943386 -0.85387313
0003f0 d6 ca 50 bf 7c b6 8f bf 15 95 85 bf 87 ab 90 bf
       -0.81559503 -1.1227565 -1.0436121 -1.1302346

gc2.bias f4 [32]
000000 bc 76 8b bf 82 2d 89 bf 8a 8f 5e bf 6e 48 81 bf
       -1.089561 -1.0717013 -0.86937773 -1.0100229
000010 cf f6 83 bf 89 fc 87 bf 02 41 90 bf db c5 81 bf
       -1.0309695 -1.0623943 -1.1269839 -1.0138506
000020 a4 f0 85 bf d7 26 89 bf d4 c9 5f bf c7 55 8d bf
       -1.0464063 -1.0714978 -0.8741734 -1.1041802
000030 a6 de 87 bf ab 35 6f bf f7 04 7a bf 1e 50 7a bf
       -1.0614822 -0.93441266 -0.97663826 -0.977785
000040 9a a2 67 bf 99 0d 79 bf 13 35 91 bf 02 b5 81 bf
       -0.90482485 -0.97286373 -1.1344322 -1.0133364
000050 11 16 8a bf 2c 48 94 bf c4 08 8b bf 6d 0d 87 bf
       -1.0787984 -1.1584525 -1.086205 -1.0550972
000060 34 50 56 bf 3a cf 8c bf 1b 1c 5b bf 9d e7 80 bf
       -0.8371613 -1.100074 -0.8558976 -1.0070683
000070 b6 f5 64 bf 76 e6 59 bf ad ff 80 bf 1a fe 50 bf
       -0.89437425 -0.8511728 -1.0078026 -0.8163773
