model_weight/SRGCAE_VR_SG.pth (torch, 4695 bytes, 6 tensors)

gc1.weight f4 [3, 16]
-5.4415975 -5.373513 -3.0219681 -4.3038692 -5.320124 -5.056109 -5.3556733 -5.305103
-4.9628606 -5.263346 -5.4917064 -5.3232107 -5.138778 -5.4135456 -5.0655074 -4.4832377
-5.402883 -5.57351 -2.936981 -4.544671 -5.2831926 -5.046189 -5.072838 -5.442567
-5.137628 -5.1488423 -5.525288 -5.1401258 -5.217882 -5.0243793 -5.358483 -4.3893433
-5.4851346 -5.189578 -3.1271555 -4.243131 -5.241556 -5.063738 -5.4804606 -5.3059034
-4.9954867 -5.147393 -5.15296 -5.0315495 -5.3336387 -5.205606 -5.058434 -4.2271395
00000000: 9121 aec0 d2f3 abc0 ed67 41c0 4cb9 89c0
00000010: 753e aac0 a5cb a1c0 ad61 abc0 67c3 a9c0
00000020: c1cf 9ec0 556d a8c0 0fbc afc0 be57 aac0
00000030: df70 a4c0 c43b adc0 a318 a2c0 af76 8fc0
00000040: 6be4 acc0 325a b2c0 7ff7 3bc0 f26d 91c0
00000050: ea0f a9c0 617a a1c0 b054 a2c0 8229 aec0
00000060: 7367 a4c0 51c3 a4c0 29cf b0c0 e97b a4c0
00000070: e4f8 a6c0 b7c7 a0c0 b178 abc0 8075 8cc0
00000080: 3986 afc0 0611 a6c0 5123 48c0 bbc7 87c0
00000090: d4ba a7c0 240a a2c0 ef5f afc0 f6c9 a9c0
000000a0: 07db 9fc0 72b7 a4c0 0ce5 a4c0 7402 a1c0
000000b0: 2bad aac0 5394 a6c0 b1de a1c0 ba44 87c0

gc1.bias f4 [16]
-4.167735 -5.0103025 3.2230012 -3.9481509 -4.9568734 -5.3010254 4.218255 -4.8665166
-4.9933906 -4.604447 2.2094738 -5.2131357 -5.407185 -5.3126316 -5.138773 -5.202722
00000000: 165e 85c0 6654 a0c0 a745 4e40 81ae 7cc0
00000010: b59e 9ec0 00a2 a9c0 f2fb 8640 81ba 9bc0
00000020: dbc9 9fc0 a157 93c0 0568 0d40 02d2 a6c0
00000030: a907 adc0 1401 aac0 d470 a4c0 b37c a6c0

gc2.weight f4 [16, 32]
-5.2583385 -5.1413565 -5.0228643 -5.144079 -4.978259 -5.2798786 -5.2641673 -5.215071
-5.108826 -5.180702 -5.3597007 -5.1758156 -5.284273 -4.8029532 -5.251862 -5.0055156
-5.3446717 -5.1894507 -5.391978 -4.8750396 -5.1057887 -5.2633004 -5.176575 -5.007773
-5.2299566 -5.4387746 -5.2608504 -5.42456 -4.882626 -5.4234395 -4.901527 -5.094129
-5.107496 -5.2270093 -5.104931 -5.1003695 -5.2987604 -5.0268846 -5.2943425 -5.3227906
-5.0666203 -4.983228 -5.1085086 -5.122377 -5.355482 -4.733212 -5.316175 -4.9799757
-5.228707 -5.2862167 -5.1276493 -4.8348484 -5.116519 -5.12668 -5.22287 -5.0449624
-5.1052756 -5.359946 -5.053461 -5.4115376 -4.98923 -5.307048 -5.049854 -5.2755203
-5.1773715 -4.967491 -5.2899485 -5.240118 -5.2763925 -5.1719317 -4.9660096 -5.0782084
-5.078873 -5.327939 -5.2507954 -5.3671446 -1.4046861 -4.874827 -5.0726166 -4.90816
-5.0543118 -5.232147 -3.9406235 -5.2382255 -4.9767118 -5.2283254 -5.2025003 -5.1151195
-5.0150332 -5.1757956 -4.8820176 -1.0149951 -5.2654715 -0.86984104 -5.3565383 -5.222241
-5.35249 -5.0439334 -5.1194725 -5.155658 -5.269862 -5.0557184 -5.1239643 -5.052521
-5.120645 -5.2801013 -5.1904755 -5.4324465 -5.208097 -5.192218 -5.211323 -5.015369
-5.043344 -5.43446 -5.1792865 -4.9390173 -5.199536 -5.20842 -5.261734 -5.033544
-5.1624074 -5.338298 -5.1323137 -5.1439734 -5.212773 -5.04055 -5.206725 -5.162372
-5.294304 -5.2287345 -4.970388 -5.1074 -5.199301 -5.2993913 -5.258877 -5.0628357
-5.01416 -5.0189333 -5.092136 -5.36765 -5.293546 -4.7482133 -5.2024317 -4.9870005
-5.2414975 -5.2741165 -5.272524 -4.8846507 -5.148704 -5.1502333 -5.0215454 -5.1253605
-5.3794055 -5.3996425 -5.061964 -5.4055552 -5.134547 -5.128749 -5.1176715 -5.2062125
-5.4295416 -5.0980678 -5.155089 -5.0910506 -5.209753 -4.972565 -5.1129518 -5.0202312
-5.0577326 -5.2464027 -5.199992 -5.148805 -5.1996584 -4.8569713 -5.2489843 -5.072159
-5.2395186 -5.451962 -5.047832 -4.840049 -5.162284 -5.272533 -5.0144267 -5.2398934
-5.346439 -5.247281 -5.1308365 -5.296669 -5.2897415 -5.355729 -5.232841 -5.1551514
-5.425049 -5.1793976 -5.0249324 -5.233986 -4.995108 -5.2116876 -5.41176 -5.31674
-5.0515857 -5.229799 -5.2101107 -5.1655717 -5.341481 -4.836741 -5.2602844 -5.0069265
-5.232841 -5.319619 -5.3137994 -5.015914 -5.0847516 -5.178261 -5.2917423 -5.3214216
-5.1968794 -5.2466483 -5.224094 -5.4210963 -4.952055 -5.434518 -5.075689 -5.220114
-5.261419 -4.976959 -5.2597637 -5.2211366 -5.114532 -5.1024246 -5.383351 -5.234627
-5.0683336 -5.2405186 -5.172192 -5.163856 -5.28501 -4.8378267 -5.418319 -4.9082685
-5.204832 -5.2788606 -5.387971 -5.0575724 -4.993862 -5.139536 -5.044046 -5.0397863
-5.39813 -5.4106417 -5.056337 -5.367554 -5.080802 -5.296492 -5.00064 -5.196224
00000000: 4f44 a8c0 fe85 a4c0 4ebb a0c0 4c9c a4c0
00000010: e64d 9fc0 c4f4 a8c0 0f74 a8c0 dde1 a6c0
00000020: 817b a3c0 50c8 a5c0 ab82 abc0 48a0 a5c0
00000030: c418 a9c0 cbb1 99c0 410f a8c0 2f2d a0c0
00000040: 8d07 abc0 fb0f a6c0 158b acc0 5300 9cc0
00000050: 9f62 a3c0 f56c a8c0 81a6 a5c0 ad3f a0c0
00000060: ce5b a7c0 710a aec0 e358 a8c0 ff95 adc0
00000070: 793e 9cc0 d18c adc0 4fd9 9cc0 1b03 a3c0
00000080: 9b70 a3c0 a943 a7c0 985b a3c0 3a36 a3c0
00000090: 728f a9c0 3ddc a0c0 416b a9c0 4d54 aac0
000000a0: c121 a2c0 9b76 9fc0 e778 a3c0 83ea a3c0
000000b0: 1c60 abc0 7976 97c0 1b1e aac0 f65b 9fc0
000000c0: 9151 a7c0 b028 a9c0 b415 a4c0 14b7 9ac0
000000d0: 86ba a3c0 c30d a4c0 c021 a7c0 5570 a1c0
000000e0: 6b5e a3c0 ad84 abc0 f4b5 a1c0 512b adc0
000000f0: c6a7 9fc0 56d3 a9c0 6798 a1c0 10d1 a8c0
00000100: 07ad a5c0 b0f5 9ec0 4247 a9c0 0caf a7c0
00000110: 35d8 a8c0 7780 a5c0 8de9 9ec0 af80 a2c0
00000120: 2186 a2c0 7a7e aac0 8406 a8c0 a6bf abc0
00000130: c1cc b3bf 95fe 9bc0 e052 a2c0 a60f 9dc0
00000140: ecbc a1c0 c06d a7c0 2d33 7cc0 8b9f a7c0
00000150: 3941 9fc0 714e a7c0 e27a a6c0 0faf a3c0
00000160: 277b a0c0 1ea0 a5c0 7d39 9cc0 5ceb 81bf
00000170: be7e a8c0 e7ad 5ebf c368 abc0 991c a7c0
00000180: 9947 abc0 e767 a1c0 b8d2 a3c0 26fb a4c0
00000190: b6a2 a8c0 72c8 a1c0 84f7 a3c0 41ae a1c0
000001a0: 53dc a3c0 97f6 a8c0 6018 a6c0 9ad6 adc0
000001b0: bba8 a6c0 a626 a6c0 28c3 a6c0 e77d a0c0
000001c0: 1363 a1c0 19e7 adc0 b7bc a5c0 6e0c 9ec0
000001d0: 9962 a6c0 60ab a6c0 2060 a8c0 cb12 a1c0
000001e0: 7132 a5c0 56d3 aac0 ea3b a4c0 6e9b a4c0
000001f0: 09cf a6c0 304c a1c0 7e9d a6c0 2732 a5c0
00000200: f06a a9c0 cb51 a7c0 6b0d 9fc0 d26f a3c0
00000210: ac60 a6c0 9d94 a9c0 b848 a8c0 c002 a2c0
00000220: 0074 a0c0 1a9b a0c0 c7f2 a2c0 cac3 abc0
00000230: bb64 a9c0 5df1 97c0 527a a6c0 8295 9fc0
00000240: 59ba a7c0 90c5 a8c0 84b8 a8c0 0f4f 9cc0
00000250: 2fc2 a4c0 b6ce a4c0 80b0 a0c0 f402 a4c0
00000260: 1724 acc0 dfc9 acc0 9cfb a1c0 4ffa acc0
00000270: 364e a4c0 b61e a4c0 f7c3 a3c0 4b99 a6c0
00000280: cebe adc0 5f23 a3c0 7df6 a4c0 e3e9 a2c0
00000290: 4cb6 a6c0 411f 9fc0 4d9d a3c0 bca5 a0c0
000002a0: f2d8 a1c0 88e2 a7c0 5666 a6c0 03c3 a4c0
000002b0: 9a63 a6c0 4f6c 9bc0 aef7 a7c0 204f a2c0
000002c0: 23aa a7c0 7976 aec0 d787 a1c0 aee1 9ac0
000002d0: 6e31 a5c0 97b8 a8c0 2f76 a0c0 35ad a7c0
000002e0: 0716 abc0 bae9 a7c0 d02f a4c0 507e a9c0
000002f0: 9045 a9c0 2262 abc0 6f73 a7c0 00f7 a4c0
00000300: 009a adc0 a0bd a5c0 3fcc a0c0 d07c a7c0
00000310: edd7 9fc0 25c6 a6c0 232d adc0 bc22 aac0
00000320: 97a6 a1c0 835a a7c0 3ab9 a6c0 5d4c a5c0
00000330: 6aed aac0 95c6 9ac0 4054 a8c0 be38 a0c0
00000340: 6f73 a7c0 523a aac0 a50a aac0 5e82 a0c0
00000350: 49b6 a2c0 50b4 a5c0 f455 a9c0 1649 aac0
00000360: d64c a6c0 8be4 a7c0 c72b a7c0 9f79 adc0
00000370: 3c77 9ec0 92e7 adc0 0b6c a2c0 2d0b a7c0
00000380: 8b5d a8c0 4043 9fc0 fc4f a8c0 8d13 a7c0
00000390: 3faa a3c0 1047 a3c0 6944 acc0 1082 a7c0
000003a0: ca2f a2c0 54b2 a7c0 9982 a5c0 4f3e a5c0
000003b0: cd1e a9c0 7acf 9ac0 df62 adc0 8910 9dc0
000003c0: fc8d a6c0 6dec a8c0 426a acc0 a2d7 a1c0
000003d0: b8cd 9fc0 1477 a4c0 d368 a1c0 ee45 a1c0
000003e0: 7bbd acc0 fa23 adc0 83cd a1c0 01c3 abc0
000003f0: ee95 a2c0 dd7c a9c0 3e05 a0c0 7847 a6c0

gc2.bias f4 [32]
-5.157568 -4.928408 -5.273384 -5.2153883 -5.1815033 -4.989566 -5.0347514 -5.2341523
-5.28664 -5.2839746 -5.271232 -5.099064 -2.9802582 -4.9452896 -5.2265167 -4.790339
-4.977194 -5.377747 -5.070689 -5.0499763 -4.8370705 -5.1175556 -5.146407 -4.996483
-5.2454047 -5.130325 -5.1395745 -4.966227 -5.138644 -3.329812 -5.0264716 -5.2341394
00000000: cc0a a5c0 85b5 9dc0 90bf a8c0 76e4 a6c0
00000010: e0ce a5c0 86aa 9fc0 af1c a1c0 2d7e a7c0
00000020: 282c a9c0 5216 a9c0 efad a8c0 882b a3c0
00000030: 8dbc 3ec0 d03f 9ec0 a03f a7c0 754a 99c0
00000040: 2c45 9fc0 8116 acc0 1643 a2c0 6899 a1c0
00000050: 48c9 9ac0 04c3 a3c0 5eaf a4c0 30e3 9fc0
00000060: 5bda a7c0 9f2b a4c0 6577 a4c0 55eb 9ec0
00000070: c66f a4c0 a41b 55c0 dbd8 a0c0 127e a7c0

gc3.weight f4 [32, 3]
5.2815547 4.5859795 4.193003 -4.275649 -4.4562125 5.012102 4.042523 4.672827
-4.665705 -3.8591752 4.647602 -4.863344 3.925047 4.7428145 -4.651641 -3.4974132
4.7488503 -4.5349703 4.723801 5.5743427 -4.524122 -3.809726 -4.4876876 5.1449265
4.2001796 5.163987 -4.517047 4.653873 -5.044682 4.8496485 4.8443937 4.6580286
-4.8613944 4.721517 3.946805 4.8428707 4.730707 5.2699213 5.0731573 -4.884093
-4.832077 4.573358 4.7359757 5.3372693 -4.5602365 -4.5266438 -4.7281404 4.541857
4.9997034 -4.5121307 5.1595716 4.497509 4.7708025 -4.5056453 -3.9964826 -1.4361002
5.2706847 4.08735 -4.7255735 4.576848 3.9068372 -4.2411547 5.1205173 4.480265
5.260949 -4.663044 -2.254075 4.8975024 -4.7247066 -3.9323783 4.7137976 -4.4780273
-3.675332 -1.4971389 5.131788 5.377273 4.7671857 4.5969424 -4.321882 -4.2107663
5.24708 5.0031037 5.517754 -4.4428444 1.4218428 -5.359274 4.485717 4.7856617
5.0493455 5.1047096 4.4706097 -4.9265285 4.8426147 -3.7031298 4.92237 -4.606196
00000000: 7f02 a940 58c0 9240 152d 8640 1ed2 88c0
00000010: 4b99 8ec0 2463 a040 595c 8140 cc87 9540
00000020: 754d 95c0 bafc 76c0 28b9 9440 84a0 9bc0
00000030: f833 7b40 23c5 9740 3eda 94c0 9ed5 5fc0
00000040: 95f6 9740 7a1e 91c0 6129 9740 0461 b240
00000050: 9cc5 90c0 8dd2 73c0 239b 8fc0 3da3 a440
00000060: df67 8640 623f a540 a68b 90c0 87ec 9440
00000070: 096e a1c0 5230 9b40 4605 9b40 920e 9540
00000080: 8b90 9bc0 ab16 9740 7498 7c40 ccf8 9a40
00000090: f461 9740 32a3 a840 4e57 a240 7d4a 9cc0
000000a0: 60a0 9ac0 f358 9240 1d8d 9740 e9ca aa40
000000b0: 75ed 91c0 44da 90c0 ed4c 97c0 e456 9140
000000c0: 92fd 9f40 6063 90c0 361b a540 98eb 8f40
000000d0: 6aaa 9840 3f2e 90c0 5fc6 7fc0 22d2 b7bf
000000e0: 73a9 a840 92cb 8240 e637 97c0 8a75 9240
000000f0: 9f09 7a40 8ab7 87c0 47db a340 555e 8f40
00000100: b259 a840 a837 95c0 c442 10c0 57b8 9c40
00000110: cc30 97c0 16ac 7bc0 6ed7 9640 004c 8fc0
00000120: a438 6bc0 3fa2 bfbf 9b37 a440 9f12 ac40
00000130: c98c 9840 271a 9340 db4c 8ac0 99be 86c0
00000140: 14e8 a740 6d19 a040 7191 b040 c82b 8ec0
00000150: f2fe b53f 2c7f abc0 fe8a 8f40 2424 9940
00000160: 3d94 a140 c859 a340 3c0f 8f40 1fa6 9dc0
00000170: b3f6 9a40 1400 6dc0 0e84 9d40 f565 93c0

gc3.bias f4 [3]
0.20591284 0.2904776 0.29343987
00000000: d1da 523e 7bb9 943e c03d 963e
